scripts/models/pnet_20201009_final.pkl (torch_old, 90705 bytes, 36 tensors)

module.features.0.weight f4 [10, 3, 3, 3]
00000000: 3c36 633d 7586 4e3e 789a 3a3e 6dde f93d
00000010: 4e4d 023d 9392 15be 038f c0bc 7f82 ec3c
00000020: 3969 6dbe ad20 6d3e 4bdf 4f3e 8113 793e
00000030: 1fa0 2f3d c0e7 a33e 868a 483e 26cd 36bc
00000040: 0a9a 153d 3b1d f13d f8c3 80be d83d 14bf
00000050: 8363 afbe f4f7 c4be b9e5 b3be 6ba0 373e
00000060: 3fb7 afbd 7953 823d 31a6 173e 955b 2f3e
00000070: 5a7c 48be 60d1 cebd c190 183d 7f19 06be
00000080: e745 b03d 87b2 81bd 9ee7 493c 93c3 a33d
00000090: 27cf 81bd 9dba 18be d232 353e 7c5c f5bd
000000a0: 11e8 15be 93f2 233e 6321 8abd 49d0 a73c
000000b0: 5b53 5f3e 2ec7 f8be 0fa5 e9be 684c fb3e
000000c0: ad8f 8bbe 98e9 40be 442c 233f 4306 0a3e
000000d0: ce8c 023e f404 2e3e a365 2cbe d789 203e
000000e0: 1f69 d3bd 57ea 9fbd 208a 343e 3720 eebc
000000f0: 1791 bdbd 9c73 183e f74c 7c3d 8abe 8fbe
00000100: b68b d43e 9d5a a83d ca7a 95be 01aa 753e
00000110: a7ad c6bd c530 8e3b 5b36 ae3c 7ecf 5cbe
00000120: 5475 03bf 3167 193f 890a 0ebe 06b5 10be
00000130: db30 d83e a6c3 89be 47e3 0d3e 8876 8cbc
00000140: c995 f7bc 8336 543e 5f53 a0be c1e0 85bd
00000150: a100 a13e a528 cfbe a9a5 233e fc90 44be
00000160: f6c0 a5be 0930 7c3e d653 253e 0ca7 2c3d
00000170: 0085 22be 7d03 0d3e 528c 9f3d 6e85 353e
00000180: 2730 133e 4ae9 93bd adcd f6bc a130 acbe
00000190: 0e75 793e 96c4 5a3e 5144 f3be ce15 bf3e
000001a0: a2bf cdbe d500 ad3d 3fed c63e 474c 4fbe
000001b0: 5b04 223b 349e 0ebd c41e 61bd bbff a53c
000001c0: 3ed7 543d 57e7 bdbd d2f2 1d3d a410 023e
000001d0: 123c 2bbd 4132 113e ea1d 4e3c a8cb 62bd
000001e0: 6e81 07be 53f5 84bd 76a7 5bbc 3522 bcbd
000001f0: 900e e73c 0571 92bd ce57 bcbe e3f5 d6be
00000200: 5e50 bdbe 9ff3 55bd d21f e0bc cf34 28bd
00000210: d825 ca3e 8946 243f f63f f03e a46c 66be
00000220: a8ff b2bd 0e20 22be a9a9 0cbe 02ea c13d
00000230: 399c 2dbe dc8b 5c3e 3fcb e4bc bf2d 663c
00000240: b226 6b3e 4893 3f3e b8aa 643d 672f 923e
00000250: 71c9 9f3e 49d8 433e 5394 3c3e 5b7d 403e
00000260: 42e3 b73e dea2 1c3e a641 a4bd c2ae e2bd
00000270: ec45 853d 519c dbbe 31fa 99bd 1d64 b3be
00000280: 8f58 abbd b8b7 b1be 83a4 253e a8e0 863d
00000290: 4c40 8c3d 72ec 3abe 4f67 c73e 02c1 b5be
000002a0: dc67 8fbe 551e 233f 9e1b debc 76da dc3d
000002b0: dd30 82bd 7ec7 a6be 2254 bfbd 4dd7 39be
000002c0: d170 42be 393b 003e 0b2c 0d3a 502b a8be
000002d0: 0c87 99be f455 103e 2d21 0a3e e366 b63e
000002e0: 1a58 a0be a6b4 f83e 20e7 353e 101c 28bf
000002f0: fcbd bc3e 5113 2a3d dbd1 423e 6051 773d
00000300: 672b ab3c c0bd 403d cfe4 3fbd 362c 44bd
00000310: 9f27 45be 114d 16be e515 e03a 9231 893e
00000320: 4a2c 0e3e bc81 16be b622 d53d efff e4bc
00000330: 89b8 cabd ab90 8dbd 28be 84bd d8a1 073d
00000340: fb05 123f af15 6e3e 455b c8be f1e4 46be
00000350: 2d20 7d3e f102 96be 0979 abbe 6fd1 0d3e
00000360: a82f b1bd 66d7 e3bd d526 8ebd 91c5 303d
00000370: 0d2f 173e 0072 5b3d fe40 a6bd 22d6 2fbd
00000380: 4094 dfbc 23ba 113e cd3b a73d c411 573d
00000390: 1d8d 013e 34f2 e43d c127 d93d bc4c 473d
000003a0: 00bc c93b 5489 5b3d 1b5c 30bd 61b9 b63d
000003b0: 71a6 113d 4437 503d 37f9 483e f3a8 963e
000003c0: 1bc4 adbd 4935 8f3c 1ecf ff3d 7811 69be
000003d0: fd7b c7bb 4014 07bc 0231 94bd e3a9 8b3d
000003e0: db3d 023e dccb b73b b94c 843e 78a8 0fbe
000003f0: f719 df3d 9729 d0bc bd51 963e c837 c93d
0.055471644 0.20168479 0.18222988 0.122006275 0.031812005 -0.14606695 -0.023505693 0.02887082
-0.2318467 0.23156996 0.20300023 0.24323846 0.042877313 0.3201275 0.19584092 -0.01115731
0.036523856 0.117731534 -0.25149512 -0.57906866 -0.3425561 -0.38470423 -0.35136202 0.17932288
-0.08579873 0.063635774 0.1480949 0.1712478 -0.19578686 -0.10098529 0.037247423 -0.13095663
0.08607083 -0.063328795 0.012323288 0.07996287 -0.06338339 -0.14914937 0.17695168 -0.119805306
-0.14639308 0.16010503 -0.06744649 0.02048506 0.21809141 -0.48589462 -0.45633742 0.4908173
-0.27258053 -0.18839109 0.6373942 0.13478951 0.12749025 0.16994077 -0.16835646 0.15677582
-0.10322785 -0.07808369 0.17630816 -0.029068096 -0.09256189 0.14887851 0.061596837 -0.28075057
0.4151284 0.08220408 -0.29195243 0.23990633 -0.0970109 0.00433931 0.021266153 -0.21563527
-0.51350904 0.5992308 -0.13871206 -0.14131555 0.42224774 -0.2690708 0.1385623 -0.017146364
-0.03022279 0.2072392 -0.31313607 -0.06537009 0.31445792 -0.40460697 0.15981163 -0.19195932
-0.3237378 0.24627699 0.16145262 0.042151496 -0.15871048 0.13770862 0.07790436 0.1772668
0.14373837 -0.07222231 -0.03012737 -0.3363085 0.24361059 0.21364054 -0.4751306 0.37321323
-0.40185267 0.08447424 0.3885288 -0.20243941 0.0024721834 -0.034818843 -0.05496098 0.020263543
0.051963083 -0.0927264 0.03856165 0.1270166 -0.041805334 0.14179327 0.012580374 -0.055370003
-0.13232967 -0.064921044 -0.013406625 -0.09186212 0.028205186 -0.07150463 -0.3678574 -0.41984472
-0.36975378 -0.05223429 -0.027358923 -0.041065987 0.39481997 0.6417013 0.46923798 -0.2250238
-0.08740169 -0.1583254 -0.13736595 0.094684616 -0.16954125 0.21537727 -0.027928947 0.014048993
0.2296398 0.18708527 0.055826873 0.2855179 0.31208375 0.19125475 0.18415956 0.1879782
0.3591557 0.15296504 -0.08020334 -0.11068489 0.06507477 -0.42892697 -0.07518423 -0.35037318
-0.083665006 -0.3471048 0.16176037 0.065858185 0.06848201 -0.18254259 0.38946006 -0.35498816
-0.28008926 0.6371816 -0.027112778 0.107838556 -0.06356976 -0.32574075 -0.09342219 -0.18148537
-0.18988349 0.12522592 0.0005385286 -0.32845545 -0.29985845 0.14095289 0.13489218 0.3562537
-0.31317216 0.48575324 0.17763948 -0.6566782 0.36863697 0.041522328 0.19025366 0.06038034
0.02089472 0.04705596 -0.04684907 -0.047893725 -0.19253395 -0.14677836 0.0017096369 0.26795632
0.13884082 -0.14697927 0.10407011 -0.02795407 -0.098984785 -0.06912359 -0.06481582 0.03311333
0.57040375 0.23250459 -0.39132133 -0.19423272 0.24719305 -0.2929912 -0.3349078 0.13849424
-0.08651668 -0.11125068 -0.06941 0.043157164 0.14764042 0.053575516 -0.08117865 -0.042928822
-0.02729237 0.14231162 0.08165703 0.052507177 0.12651487 0.11179009 0.106032856 0.048657164
0.0061564445 0.053597763 -0.04305659 0.08922077 0.03555912 0.050833955 0.19626318 0.29425773
-0.0848467 0.017481463 0.12490676 -0.2276057 -0.0060877786 -0.008244574 -0.0723591 0.06819513
0.12718908 0.0056090187 0.25839785 -0.1402911 0.10893624 -0.025410457 0.29359236 0.098250926

module.features.0.bias f4 [10]
00000000: 5912 bd3e 1c87 2b3e 9b37 843b f25c 2bbb
00000010: 862b 2c3d 144a 0c3f 3a19 a3bd 13d9 563d
00000020: f3f8 91be 4ea4 9a39
0.3692806 0.16750759 0.004034949 -0.002614793 0.042033695 0.54800534 -0.07963796 0.05245311
-0.28510246 0.00029495585

module.features.2.weight f4 [16, 10, 3, 3]
00000000: fb0d b4bd c64d 2f3d 7991 26be 1d0f 94bb
00000010: d725 bd3b 7c59 113e 72bf abbd b46c ffbb
00000020: 637f ce3d 3816 4e3b 5e13 dcbc 2f7e 6d3c
00000030: b89f ff3b d280 57bb 76f9 213e 3ab2 3f3d
00000040: c48f f93c 3194 113e 152a 473d 2abf a13d
00000050: f5b1 a23d dca8 603b fd43 d9bd bacc 303d
00000060: 8277 14bc adc6 0b3c fa01 933e b248 86bd
00000070: a026 b6be a0f1 48bd d590 0a3d 87ff 92be
00000080: 7b06 cebe 3b47 703e 0706 163e 74fa bf3e
00000090: 1128 a83d 97ec 90bd 7466 fcbd 176b 0a3e
000000a0: 56e1 cfbc ff96 e0bd a3eb 5c3d 3270 9fbd
000000b0: 8355 e9bc 8f3a 053c edce 1fbe 5c26 1abe
000000c0: 8f6a 883c 41a2 97be a79d 9c3e e270 febc
000000d0: 9779 33be eac9 c83e 8b14 ad3e c53f ad3e
000000e0: d01e d7bc de21 013f 1dcc 5b3e 9c55 84bc
000000f0: c26d 5cbe 5f0a 2fbf 8992 56bf 8c5a ce3d
00000100: 5e6e 8dbc b259 13be 5f63 cf3d 814e c2bc
00000110: f7b9 00be 05d5 1ebc 6e99 aebd 4971 e4bc
00000120: e7f0 b73d 8538 963d b7ad 4ebd c87a 273e
00000130: c658 f63b da2f debd fee6 343d 93b8 e5bd
00000140: 3431 5dbe daad 0e3e 9512 cd3d d5d6 83bc
00000150: 2d6c cc3c 72a2 f2bc 5894 143e 634f b43b
00000160: 23f0 66be b194 45bd ca08 1d3d 2fa1 2bbe
00000170: 8159 943d 604d 053c ca97 b53d 2b4a 533d
00000180: 7dd1 ba3c 8f24 1bbd 3c97 8c3c 22aa 8bbc
00000190: 2c00 23bf 36e4 833e 96cd a43d 04ae c83c
000001a0: 53a7 5dbc ac88 413b 3037 693c 06cb 513c
000001b0: 8d7e c33b e785 c23d 5918 fc3e e291 2a3d
000001c0: 828a 26bd 66c3 a73c 2265 91bb 1916 553d
000001d0: f5c2 753d 4286 b7bd ecd5 0f3e dc48 f63e
000001e0: 0abd 403c 445d 5ebe 15d6 fe3d d1b2 933c
000001f0: 4113 d7bc 7e0d 763d 14fd b43d 1524 263e
00000200: b17d 9fbe d9ef ba3d c1f4 3abd 6d92 26bd
00000210: 71fc 933c 035a 52bc a673 373d 86c9 113d
00000220: b047 893d 4505 82be 3390 98b9 9139 a3bd
00000230: 9814 2d3e f81c 3abd e693 6bbd 5a3a 393d
00000240: 2d03 073c 0c9b 2abe 02b7 e8bd b17a f43b
00000250: e41a b7bd 917c b13d 9906 013e a993 813c
00000260: 38ba a23d fb15 e53c 5d30 bcbe 3d60 1bbd
00000270: 47b8 d7bc ce71 5abc fa3f a73d 1f8a 473d
00000280: 1efb 9d3d 6945 093e 3d26 0cbe 84f7 33be
00000290: d6e1 053a 8daf 863d b398 293e f683 353d
000002a0: ba6f df3d 0e21 113e 70d7 42bc c6e9 1d3d
000002b0: 5cc1 83bf 00b2 02bf 1d0e dc3c f39e 00be
000002c0: 8559 9ebd d0d1 b03d c29b 163d b5fd 0a3d
000002d0: 517e b13e 981b fa3d 8b7e 453e 8d70 dcbd
000002e0: 073f 18be bf84 a1be 6ef6 c5bc 69d9 8bbe
000002f0: 4741 afbb f3d4 76bd 9f6e 353d d98a 94bd
00000300: e8b9 acbc deb1 57bd 9815 2d3e c035 cc3c
00000310: 6ccc b03d 0435 db3d 1ad0 a3bd 9684 b83c
00000320: 96f7 383d 4519 c9bc ec7c 8cbc ca31 6a3d
00000330: 4faf 533d 2e13 a2bd 1334 073e 62cc 13be
00000340: 2ff7 bdbe 1e6b bbbe d118 3ebe 601e 0bbf
00000350: 01b2 c3be 4251 95be 4041 05bf 08a9 72bd
00000360: 2e2a 103e bed3 8c3d 9b9f fb3d a8be 183d
00000370: 0c38 703b 780a 453d eb17 eebb 7f4b 153e
00000380: ef2e 79be cad3 3c3e 0be0 15be 3dae 973c
00000390: 61a1 78bd df40 4ebe ea46 2abe 9d3a 003e
000003a0: db59 1bbd fb09 c53e 38d6 86be c78a 52be
000003b0: da1c 04bf ced6 b2be 3ac3 00be 9b14 ccbe
000003c0: ebad 9cbe 22ef f7bd 8ed6 f0bd cc2f 1a3e
000003d0: b5bb 56bb b528 263d aba8 dbbb 0588 9ebc
000003e0: 407a 87bd 056a 743d dd07 e73c c6a5 dabd
000003f0: e5b1 c83a 43ae cf3b 9377 aabd 8869 f0bc
-0.08791729 0.04279878 -0.16266431 -0.004518403 0.005772333 0.14194292 -0.08386125 -0.007794941
0.10082891 0.003144635 -0.026864704 0.014495417 0.0078010224 -0.003288318 0.15817818 0.04680083
0.03046406 0.14216687 0.048624117 0.0789779 0.07944099 0.0034280336 -0.10608671 0.043163992
-0.009061696 0.008531255 0.28712445 -0.06556834 -0.35576344 -0.049058557 0.03382953 -0.28710577
-0.4023932 0.23464672 0.14650737 0.37495768 0.08210767 -0.07076376 -0.12324229 0.13517414
-0.025376003 -0.109663 0.05393566 -0.077850714 -0.028483158 0.008131637 -0.1560628 -0.15053695
0.016652374 -0.29615977 0.3058903 -0.031059686 -0.17526852 0.39216548 0.33804736 0.33837715
-0.02625981 0.504423 0.21464582 -0.016154103 -0.21526244 -0.683752 -0.83817345 0.10075864
-0.017264541 -0.14389685 0.101263754 -0.023719074 -0.1257094 -0.0096943425 -0.08525358 -0.02788605
0.08981495 0.07334999 -0.050458636 0.16355431 0.007517907 -0.10848971 0.044165604 -0.11216845
-0.21600801 0.13933507 0.1001331 -0.01609365 0.024953926 -0.029618476 0.14509714 0.0055026277
-0.22552542 -0.048237506 0.03833846 -0.16760705 0.07243634 0.008136123 0.08866842 0.051584404
0.02280497 -0.037876662 0.017161958 -0.0170489 -0.6367214 0.2576005 0.08047025 0.02449704
-0.013528663 0.0029530926 0.014234349 0.012804752 0.0059660138 0.09498196 0.49237326 0.04164303
-0.040659435 0.020478915 -0.004437105 0.052023027 0.06000038 -0.089611545 0.14046448 0.48102462
0.01176382 -0.21715266 0.12443177 0.018029602 -0.026254298 0.06007146 0.08837333 0.16224702
-0.31150582 0.091277786 -0.04564357 -0.040666986 0.01806471 -0.012838843 0.044788025 0.03559258
0.067031264 -0.25394645 -0.00029099136 -0.07969964 0.16902387 -0.045437783 -0.057514094 0.045221664
0.008240503 -0.16660708 -0.11363031 0.007460915 -0.08940676 0.08666337 0.12600173 0.01581748
0.07945675 0.027964583 -0.36755648 -0.037933577 -0.026332987 -0.013332797 0.081664994 0.048715707
0.077139124 0.13405384 -0.13686462 -0.17574888 0.00051071995 0.065764524 0.16562156 0.0443153
0.10909982 0.14172766 -0.011892185 0.03855302 -1.0293384 -0.51052856 0.026862198 -0.12560634
-0.07731918 0.086337686 0.036769636 0.03393336 0.34666684 0.12212294 0.19286554 -0.10763655
-0.14867793 -0.3154659 -0.024165358 -0.27314308 -0.005348358 -0.060261678 0.04429495 -0.072530456
-0.02108474 -0.05265986 0.16902769 0.024927974 0.086327404 0.10703471 -0.079986766 0.02252416
0.04515799 -0.024548182 -0.017149411 0.05717639 0.05168086 -0.079138145 0.13203458 -0.14433435
-0.3710265 -0.3660516 -0.18564154 -0.54343224 -0.38221744 -0.29163557 -0.5205269 -0.059243232
0.1407859 0.06876324 0.12286302 0.0372912 0.00366545 0.048105687 -0.007266035 0.1457958
-0.2433431 0.18440166 -0.14636247 0.0185157 -0.060700778 -0.20141934 -0.16628614 0.12522359
-0.03792749 0.38484177 -0.2633531 -0.20560752 -0.51606524 -0.34929508 -0.12574473 -0.3985947
-0.3060144 -0.12106158 -0.11759673 0.15057296 -0.003276569 0.040566165 -0.0067034564 -0.019351969
-0.06615114 0.05967142 0.028201992 -0.1067615 0.0015311806 0.0063379123 -0.08323588 -0.029347196

module.features.2.bias f4 [16]
00000000: c075 443c 32df c03d 5ac9 883e 8e96 e63c
00000010: d69c ae3e e928 e5bc 9341 2e3e af4a 2abe
00000020: fc2b b43d 6cc6 c0bd e328 853c dbd8 543e
00000030: 2ef9 0e3b c418 123d d182 b63e 582c 723e
0.011990964 0.09417571 0.2671612 0.028147962 0.3410403 -0.027973609 0.17017202 -0.16630052
0.08797452 -0.09412846 0.016254848 0.20785849 0.0021816003 0.03566815 0.3564668 0.23649728

module.features.4.weight f4 [32, 16, 3, 3]
00000000: 53db a0bd 4f08 a8bd c4a2 093d aebf 08bd
00000010: a4e4 74bb 3f20 fcb8 c9fd d2ba 6c8d 993c
00000020: 3dfe 97bd a699 d3be 0b10 bdbe 1c4b 3bbe
00000030: 932f a53c 0252 1dbd 81fa 89bd 2f33 383d
00000040: b00a 00be 9693 efbd 7486 d2bc 33c5 80bd
00000050: 0c15 72bd be9f 073e 7cae 5e3d cdf2 94bd
00000060: ded7 0d3e 0b7f 1d3e 3f78 2abd 73e2 bb3d
00000070: 157e d03d 2376 543d 44d5 f43d f1d9 0abd
00000080: a67a 9f3d 83fe 59bd e339 92bd 4408 4bbd
00000090: 10d1 93bc 85d9 ea3e eab7 8b3c 3773 c4bd
000000a0: c907 d33c 403f 86be c34f 75bc 224f b7bc
000000b0: 531c a8bd 6ade 0ebe 3bd7 23bd 25e3 17bc
000000c0: cbe0 3fbe fc24 36be d452 f3bd 8072 26be
000000d0: ddc1 5a3c c211 723d ea2b f93e 6c37 453e
000000e0: 9b98 83bd c3ca b9bd 6e55 bfbd 8475 91bd
000000f0: 617c be3d 3c8a eabc 8c54 58bc 205e 0c3d
00000100: 3d8a 9cbe 0098 91be 4d99 65bd fa2f adbb
00000110: 6fe8 003e 9b87 ad3c a725 843e 0c29 203e
00000120: 9c28 893e a144 3b3e a597 313e 2823 423e
00000130: ce19 243d 7d93 b5bc fbca 3a3c 7672 bfbd
00000140: d0f6 623d 8f13 37be 8582 50be 379e 18be
00000150: 1355 86bd c677 afbd b675 293c dd7b 45bd
00000160: c3a4 643c 996f d1bd f964 09be 8b92 c5bd
00000170: 199e 4dbe 7de9 a6be d77f b8bd 3e01 16be
00000180: e37d f7bd 5b91 5c3d 0cc8 8a3d f418 8ebd
00000190: 6f35 69bd 8c1e a1bc 6bf2 7a3d 9af3 963d
000001a0: 2b11 5a3d caf5 9c3d b4e9 eb3c a31e 2dbd
000001b0: 1457 023e 08ce d63d 46be 103d 4364 5f3e
000001c0: 30eb 07bb 67d0 1fbd cd60 993c 56aa a03c
000001d0: 3ba6 c9bd fa37 c4bd bbe4 57be 2556 e3bd
000001e0: 0f4f 0cbd 89dc 19be ea2b b63c 7897 173e
000001f0: 624a 41bd 98fb 9dbd dd92 1ebe 5f80 e0bd
00000200: e553 04bd 18f7 19be aab6 d7bd 376a e03c
00000210: 60bc d0bd d668 fbbc 4b00 a33d 974b 6fbe
00000220: 7533 7f3d 11df 923e bf1f a73c 7d59 d4bd
00000230: 61dd 31bd 5ccf 0e3c 7605 68bd 19f1 e6bc
00000240: af6b a1be 4815 11be 8c27 8c3d 51e9 71be
00000250: 2b99 50be 2c01 103e c1f9 adbd fbb2 c5bd
00000260: eb8f 1e3e 8d8f 9fbd 483f b7bd d5fb 513c
00000270: 77f9 4abd e47b a3bd 16bd 81bb cd03 c73c
00000280: f9ee 89bd 594a 59bd 4065 2b3e 0c7f 5d3e
00000290: 0504 ebbb 5bf2 143e 7aca 393e 1540 e23c
000002a0: b49c 103c eeac c43d 12d1 e2bd c2ac 0c3e
000002b0: 9381 c43d 779a 85bd 932c 363e 8012 373e
000002c0: e104 513d 5d14 f03d e910 8b3d de6f ecbc
000002d0: 5f25 37be ec18 193e 7105 f4bd bd4c 41be
000002e0: c4f5 e83c 962a 92bd 682d babd 4e15 4bbc
000002f0: 4ea2 e83d d0bc bebd f077 dd3b efd1 8d3c
00000300: fbf6 e7bd 642b 93bd 6337 2cbd 1ed4 11be
00000310: f987 f6bd c8a0 91bd 0dca dc3d 0860 85bc
00000320: f8e3 f7bd 898b 2c3e e5ba 0dbd 4ca1 6abd
00000330: 410b 513d bccb e7bd 06ea 05bc 0b8f b3bd
00000340: b34a 49be b7f9 613e 4877 73be c15a 2ebe
00000350: a6a3 ae3d 3c4f 82be 0d99 013e 83aa 173e
00000360: f878 d13d 9bca 0a3d 771b a0bd 07e3 333e
00000370: a5ce a83c 2bfb e9bc 25d1 de3d ef55 c83c
00000380: bced c7bd 88ef ddbd e31d 5cbc 94c8 4cbb
00000390: a278 00be 868f 073c af0e 863d d4f7 1fbe
000003a0: 596f 7d3d b667 183e 6e3f af3d 364f be3c
000003b0: 98fb 5f3d 4c53 3fbe 1ee5 5bbd c4d0 683d
000003c0: 54fb 8fbe f4d7 b1bd fba1 913d a7e9 923c
000003d0: a2c0 323d 5010 d03d 0f17 cdbd 44df 3f3d
000003e0: c543 e53d 7769 febc 52bf 343d cdb9 5a3e
000003f0: 8ed6 0e3d 0962 373d b0cc 90bd 191a ff3d
-0.07854333 -0.0820471 0.03360249 -0.033385925 -0.0037367726 -0.00012022303 -0.0016097362 0.018744193
-0.07421539 -0.41328162 -0.36926302 -0.1829037 0.020164287 -0.038408287 -0.06737233 0.044970687
-0.12504077 -0.11698072 -0.025698878 -0.06287613 -0.059102103 0.1324453 0.05436562 -0.07272873
0.13851878 0.15380494 -0.04161858 0.09174051 0.10180298 0.051870476 0.1195474 -0.03389925
0.07787065 -0.053221237 -0.07139947 -0.04956843 -0.018044025 0.4586908 0.01705547 -0.09592288
0.025760548 -0.2622013 -0.01497263 -0.0223766 -0.082085274 -0.13952032 -0.04000018 -0.009270464
-0.18738095 -0.17787546 -0.118810326 -0.16254616 0.013351885 0.059098966 0.48666316 0.19259423
-0.064255916 -0.09071877 -0.09342466 -0.071024925 0.09301067 -0.028630368 -0.013203751 0.034269452
-0.30574217 -0.2843628 -0.056054402 -0.0052852603 0.12588666 0.021182826 0.25809976 0.15640658
0.26788795 0.18287899 0.17343004 0.18958724 0.04006367 -0.022165054 0.011400933 -0.093480036
0.05541116 -0.17878555 -0.20362289 -0.14904104 -0.06559195 -0.08567767 0.010343006 -0.04821383
0.013955298 -0.10226364 -0.13417424 -0.096470915 -0.2007984 -0.32600012 -0.090087585 -0.14648911
-0.12084558 0.05384956 0.06776437 -0.06938353 -0.056935724 -0.019667886 0.061266344 0.07370682
0.05323903 0.07664068 0.028797962 -0.042265546 0.1272853 0.10488516 0.03533771 0.2181559
-0.0020739548 -0.039017107 0.018722916 0.019612473 -0.09846159 -0.09580989 -0.21083347 -0.11100415
-0.034255084 -0.15025534 0.022237737 0.14803874 -0.047190078 -0.07714003 -0.15485711 -0.10961985
-0.03230657 -0.15035665 -0.10532887 0.027394397 -0.1019218 -0.030689638 0.0795904 -0.23368679
0.062304933 0.2868581 0.02040088 -0.10368631 -0.043424014 0.0087164305 -0.056645833 -0.028191136
-0.3152747 -0.14168274 0.068434805 -0.2362416 -0.20370929 0.14062947 -0.084949024 -0.096532784
0.15484588 -0.07791052 -0.08947617 0.012816389 -0.049554314 -0.07982615 -0.0039593084 0.024293805
-0.067350335 -0.05304942 0.16737843 0.21630496 -0.00717211 0.14545576 0.18143645 0.027618447
0.008826423 0.09603296 -0.11075033 0.13737777 0.09595027 -0.065236025 0.17790441 0.17878151
0.051030044 0.11722634 0.06790335 -0.028861936 -0.1788535 0.14950913 -0.119151 -0.1887693
0.028437503 -0.07137029 -0.09090692 -0.012395216 0.11359082 -0.09313357 0.0067586824 0.017312018
-0.11326405 -0.071860105 -0.04204501 -0.14241073 -0.120376535 -0.07110745 0.10780726 -0.016281143
-0.121040285 0.16850103 -0.034602065 -0.05728273 0.051036123 -0.11318156 -0.008173471 -0.08767518
-0.19657402 0.22067915 -0.23775971 -0.17026807 0.08527307 -0.25451076 0.1265604 0.14811139
0.10228151 0.033884626 -0.078177385 0.17567073 0.020606348 -0.028562149 0.10879735 0.024455039
-0.09762141 -0.108367026 -0.01343486 -0.0031247484 -0.12546018 0.008273965 0.065457694 -0.15621883
0.061873768 0.14883313 0.0855702 0.02323113 0.054683298 -0.18684119 -0.0536853 0.05683972
-0.28121436 -0.08683768 0.071109734 0.01793368 0.04364074 0.10159361 -0.10014164 0.046843782
0.11194567 -0.031056149 0.04412777 0.2135994 0.034872584 0.044771228 -0.07070291 0.124561496

module.features.4.bias f4 [32]
00000000: 4e04 5b3e 3561 863e a501 273e 3e00 6a3e
00000010: 84ff bf3e fb06 b03e eb69 a63e a4f0 a43e
00000020: c1b8 a73e 414f 9c3e 519f 293f 0e28 c63e
00000030: f198 233e 241a 963e b969 093e 68d4 913e
00000040: 37df 523e 16b4 1e3e 0c27 4f3e 5e33 943e
00000050: 49a5 8f3e cd32 9c3e 099f 093f 070c 9f3d
00000060: d414 983e cbb3 af3e 5a76 64bd fade a83e
00000070: bf33 893e 5ea1 ae3e 53ec d43e 203c b23d
0.21388361 0.26246038 0.16309221 0.22851655 0.3749963 0.34380326 0.32502684 0.32214844
0.32758144 0.30529216 0.6625872 0.38702434 0.15976311 0.2931682 0.13419236 0.28482366
0.20592962 0.15498385 0.20229739 0.2894544 0.2805579 0.30507508 0.53758293 0.07765966
0.2970339 0.3431686 -0.05577693 0.32982618 0.26797292 0.34107488 0.4158655 0.08702874

module.classifier.0.weight f4 [2, 32, 1, 1]
00000000: 648d 68bf c3dc 50bf daed 0b3f 0f32 f3bb
00000010: 84e4 61bf cbd0 3dbf 9b32 38bf 98e8 683c
00000020: 98a2 633f 9fe8 213f 0330 15bf e0aa 33bd
00000030: 51e9 ec3e 2c9e 6abd 8ea0 2cbb 16ed 30bf
00000040: 99ef da3c 3ee7 003f 8765 503f 0d31 073f
00000050: a352 67bf eb60 2fbf 7686 2dbf 3a09 843e
00000060: 4c45 143f b7e7 46bf c553 0fbe 75f1 5abf
00000070: 93c2 babe 9863 87bc e265 1f3f a16a 813e
00000080: 1310 683f 8582 4f3f 69bd 0dbf 9131 f93b
00000090: b505 643f ac59 3d3f 25d5 3b3f e88d 403d
000000a0: 335c 5fbf 5d20 1ebf 2403 1c3f 2963 883d
000000b0: 31f3 f4be 5b43 7c3d 951a 703c 4711 3d3f
000000c0: 71cd a33b 0941 f5be 5e36 50bf 9875 03bf
000000d0: db82 683f 00a2 293f 2d9f 2d3f f497 8ebe
000000e0: a304 1cbf 55cf 4a3f 7454 0f3e 5f9e 5d3f
000000f0: 92f3 b83e d7e7 55bb eae6 21bf 6a29 89be
-0.90840745 -0.81586856 0.5465981 -0.007421739 -0.8823931 -0.7414672 -0.7195222 0.014215611
0.88919973 0.63245577 -0.58276385 -0.04386413 0.46271756 -0.05727975 -0.0026340815 -0.69111764
0.026725577 0.5035285 0.8140492 0.5280922 -0.9036047 -0.6850726 -0.67783296 0.2578829
0.5791824 -0.7769732 -0.139968 -0.85524684 -0.36476573 -0.016526982 0.62264836 0.25276664
0.9064953 0.8105853 -0.5536714 0.0076047857 0.8907121 0.73964953 0.7337211 0.047010332
-0.8725006 -0.6176813 0.6094229 0.06659538 -0.4784179 0.061587673 0.014654775 0.7385449
0.0049988558 -0.4790118 -0.8133296 -0.5135131 0.9082467 0.6626282 0.6782101 -0.27850306
-0.60944575 0.79222614 0.1399706 0.8656978 0.3612333 -0.0032639408 -0.6324297 -0.2678941

module.classifier.0.bias f4 [2]
00000000: e61b 6e3e e841 35be
0.2325283 -0.17700922

module.regressioner.0.weight f4 [4, 32, 1, 1]
00000000: de98 90bc 60d8 43bb fb26 f8bc 51b2 fd3d
00000010: bd49 a83c 084d babc bc63 f33b 73fe 67be
00000020: e0bb 3d3c 9374 5abc 1d9f 11bc afb2 d73d
00000030: 9948 663b 88c9 80be da29 1bbc 30d8 cb3c
00000040: d3e3 88bd 1a99 65bc f6fc 54bc 09a5 41bc
00000050: c1bd 7f39 2d81 033c 4d11 88bc 11b6 f23d
00000060: b60d 0a3d a215 c63c 845c 873d 44e6 133d
00000070: f050 90bd e56b 60bb 7e4c 8dbb 5a01 7dbd
00000080: 764b 83bb e338 ec3c e45b 25bd fe0b e93d
00000090: 7bab bb3a 3208 95bd 6ec1 fd3c d7f8 bcbd
000000a0: 3502 86bc e625 913b 796a 87bc 0c63 e5bd
000000b0: 5269 0e3c 69e0 f8bd d740 d83c 261c 463c
000000c0: 7c59 a93e e73b 88bd e1eb 26bc 0769 373b
000000d0: 0dbd 403d f15c f93b 13d9 8ebc 6376 c43d
000000e0: 0c7d b93c d035 7c3d bf34 d3bc 8767 ca3c
000000f0: caa7 5dbe be99 63bd 0c77 983b 68e3 2fbd
00000100: 0bac 9c3a 2083 3abd c346 493d 18ed abbe
00000110: fc14 a4bc 4c3f 4f3d 9a5d ae3a f957 0a3e
00000120: 3f24 7ebc 3189 453d 0566 323c 1eb6 813e
00000130: 8333 d3bc 1a28 803e 33b4 6abd 1246 7bbc
00000140: e8e7 ec3d c4ca 2c3d 93ff ee3c 1132 cdbb
00000150: 91d1 9dbb d2af bcbc 4cd9 ec3c eac8 2dbe
00000160: 4e9b 26bd a0e1 debc 03a0 12be 5b8e 2abd
00000170: aad6 323e 6969 113e b707 8f3c ad06 0f3e
00000180: 2d1b 143a 39e1 51bd 4519 443d 0192 45be
00000190: 537f 85bc 5520 fb3c 3d0a 2cbd 5907 2c3e
000001a0: b40e 20bc 382e ac3c a8e5 1b3d eab2 a03e
000001b0: 57db 443b bcab 643e 85ff bf3d d019 6fbc
000001c0: 5094 213d e9f9 1a3c 59f7 483c 9715 1b3c
000001d0: 65a5 cf3b 2738 cdbc 15e6 363c 647b c6bd
000001e0: 3de1 11bd e3a0 3bbd dede 00be 6023 24bd
000001f0: 19e0 3c3e 4bf1 04be 2b02 a53b 716d 283e
-0.017651018 -0.0029883608 -0.030292025 0.12387527 0.020542974 -0.02274181 0.0074276607 -0.22655658
0.011580437 -0.0133334575 -0.008888033 0.10532128 0.0035138486 -0.25153756 -0.009470427 0.02488336
-0.06684079 -0.014013553 -0.012999764 -0.011819133 0.00024389384 0.008026403 -0.016609812 0.11851133
0.033704482 0.024180237 0.06609443 0.03610827 -0.070466876 -0.0034243998 -0.004312097 -0.061768867
-0.0040067984 0.02883572 -0.040370837 0.113792405 0.0014318073 -0.07276954 0.030976024 -0.0922715
-0.016358474 0.0044295667 -0.016530262 -0.11200532 0.0086921025 -0.12152178 0.026398106 0.012091672
0.33076084 -0.066520505 -0.010188074 0.0027986185 0.047055293 0.0076099564 -0.017437493 0.09592893
0.022642635 0.061574757 -0.025781987 0.024707569 -0.21646038 -0.05556654 0.0046528634 -0.04294148
0.0011953128 -0.045535207 0.04913975 -0.33579326 -0.020029537 0.050597474 0.0013303042 0.13510121
-0.015511571 0.04822654 0.010888581 0.25334257 -0.025781399 0.25030595 -0.057300758 -0.01533653
0.1156767 0.04218556 0.029174602 -0.006262072 -0.004816242 -0.023033056 0.028912209 -0.16971174
-0.040675454 -0.027207196 -0.14318852 -0.041639667 0.174647 0.14200367 0.017459733 0.1396739
0.00056498015 -0.05124018 0.04787566 -0.19293977 -0.016296064 0.030655066 -0.04200195 0.16799678
-0.0097691305 0.021018133 0.038060814 0.313865 0.0030037963 0.22331136 0.09374908 -0.0145935565
0.039448082 0.009458997 0.0122660035 0.009465597 0.0063368552 -0.02505119 0.011163254 -0.09691504
-0.035615195 -0.04580773 -0.12585017 -0.0400728 0.18444861 -0.12982671 0.005035659 0.16447999

module.regressioner.0.bias f4 [4]
00000000: 69cb c83c 2fa3 e9bd d601 30be 9aad 833d
0.024511056 -0.11408078 -0.171882 0.06429596

module.landmarkRegressioner.0.weight f4 [10, 32, 1, 1]
00000000: efff 51bc a330 76bb 2c2a e4bc b7b0 443e
00000010: 6a6e f63c 7280 50bb bb0c 803c 05ce d93d
00000020: e841 bc3b 84ba 2bbc 4665 b6bc 40db 403e
00000030: eea6 03bd d0bb 00be fcda c8bd 4ca2 a83c
00000040: 1c6a 97bc e790 dbbb 9513 b7bb 6fe4 28bc
00000050: 17c2 433c 34b6 9c3c b1ab 9a3c e702 fd3c
00000060: d22f 0c3d 1fa1 e83b d004 d53c 6a47 e83c
00000070: 1d2b bcbc 57df 973c b3fb 92bb 5720 3dbc
00000080: f569 cf3c 1bde 583c b3f1 79bb cadb 223d
00000090: 7c53 a83b 2117 8dbd d303 22bc 708d cb3c
000000a0: 418c 66bc 455c ba3b 2a89 8e3c 1678 353d
000000b0: ca64 21bc c236 aebc e684 373e 3563 753c
000000c0: 422f 503d 4de2 c8bd d55c dabc 399a bb3c
000000d0: f51b c13d 8854 883c ed83 933b 95ca d13b
000000e0: 214c 1b3d 269a 933c 974b 84bc a23f 023d
000000f0: 3319 83bd 77b5 a53d 5327 16bc ad4e 88bd
00000100: 606c 91bc 861c 31bd e936 003b ad46 193e
00000110: 5b7f 113d ad22 d43b c982 7f3c 2560 123e
00000120: f43f 2ebc 4785 8abc 4ebe 713c 0c44 893e
00000130: 9403 fdbc f216 fabc ff9a f2bd 9d80 a83c
00000140: 9125 cd3d c849 903c 5855 073c fdff 47bb
00000150: 7bc0 5ebc 7900 013d c145 263d a1cf 3b3c
00000160: f446 673d c9ca 08bc da76 b03b 4c63 d7bc
00000170: 65dd de3c 0c4b 1a3e cf6e bcbc ea5d 513c
00000180: 120a 933c df2d 0c3b d047 91bc a7b6 533d
00000190: 7c30 9a3c d492 88bd b19e e53a d7db 963d
000001a0: abf6 8cbb 6959 083b e0d9 113c 6f12 463d
000001b0: dac2 8dbc f9db 8fbb 25b6 2e3e fc20 53bb
000001c0: 324c 383d d720 acbd 7004 2ebc 6adc 5d3c
000001d0: 05bf c63d b14c cc3c 5e6e 5d3c 3896 8c3c
000001e0: 0432 d73c 9d81 e13c 3c19 a8bb 6685 063d
000001f0: 8c4d b3bd 4527 603d 66e3 edbb f31e 90bd
00000200: e6d7 94bc 542b e2bc 1fb6 9ebc cb3b 8d3e
00000210: 3007 1e3d 3928 8839 0bea 1b3c 52f2 9f3e
00000220: 0fa1 08bb 58cb 44bc 1ed3 03bd 742a 373e
00000230: 8140 e7bc e903 1fbd 4e23 12be 3a9b a63b
00000240: 1036 773d 9e19 47bb 7c34 883c e3d9 b2ba
00000250: b356 2fbb c685 de3c 4b82 4e3d f9f3 5cbc
00000260: 2911 173d 5aee 9abb febe 9c3c 269d efbb
00000270: 77ea 563b 9801 b83d 9430 7cbc a503 433c
00000280: 450e 713c de50 22bc d3e1 883c b541 ea3c
00000290: 415c a03c 5e4e 73bd 8828 0f3b d7b3 a73d
000002a0: 9d12 c5bc 69f9 35b8 1944 153d 27bd a73d
000002b0: d462 94bb eb82 dd3c 27a3 2f3e 70d6 ba3b
000002c0: e48e 9b3d b844 82bd 0ba0 2ebc 331b 6c3c
000002d0: 6df1 9d3d 6f60 043d d9c6 763c 1aa8 883a
000002e0: c489 433d 7c7f 953c dca5 cebc 43e2 dfba
000002f0: 330f 12bd 840f 263e e9bf a8bc 2055 2cbd
00000300: c09d 32bc b561 463b a393 1dbc c1dc 343e
00000310: 0a08 873c e520 1cbc 2263 c63b 3f62 653d
00000320: b074 83bc 8138 71bb be94 37bb 2ce6 3f3e
00000330: 3ff9 c5bc afe5 18be 2e1d adbd 5fb8 213d
00000340: 2997 a9bc f113 85bc 5ad8 8fbc e38e 13bb
00000350: c897 ee3b c300 b83c 1ba4 a43b e5e7 8b3c
00000360: fe9b 4f3d bf57 56bb 744b 563c 159b bb3c
00000370: ecd5 373c 70a6 9d3d 7fd2 18bc 3ec4 5b39
00000380: fefe 943a 2fce a6bc e82b c33c cfdd 393c
00000390: 9fa7 013c 064f 7fbd 3287 30bc 98ca d83d
000003a0: a5bf 14bd fac0 0c3c c375 853d 273b d73d
000003b0: 5da0 3ebc 762f 663d 01d4 2f3e 33b5 c73c
000003c0: 3528 003e 1288 81bd 2693 5ebc 792b 003d
000003d0: 60d6 733d baaa 0f3d f72d 873c 5c03 71bb
000003e0: 5bac 8d3d 1f9f f73b e751 41bd a9e7 96bc
000003f0: 3b8b 163b 3fac 6f3e 6c7b b7bc bfe8 b8bc
-0.012817367 -0.003756561 -0.02785214 0.19208036 0.030081946 -0.003181484 0.01563107 0.10634998
0.0057451613 -0.0104814805 -0.022265088 0.18833637 -0.03214162 -0.12571645 -0.09807393 0.020585202
-0.018483214 -0.0067006233 -0.005587051 -0.010308369 0.01194813 0.01912985 0.018880697 0.030885173
0.034225293 0.0070992853 0.026003271 0.028354365 -0.022969777 0.018539114 -0.0044855713 -0.011543355
0.025319079 0.013236548 -0.0038138449 0.03976039 0.0051369052 -0.06889177 -0.009888607 0.024847716
-0.014071525 0.005687269 0.01739939 0.044303976 -0.00985069 -0.021266345 0.1792179 0.014977266
0.05082632 -0.098087884 -0.026655594 0.022900688 0.094291605 0.01664187 0.0045018108 0.0064023235
0.0379144 0.01801784 -0.016149325 0.031798966 -0.06401291 0.08091252 -0.009164649 -0.06655631
-0.017751873 -0.043240093 0.001956398 0.14968367 0.035521846 0.0064738602 0.015595146 0.14294489
-0.010635365 -0.016909255 0.014754845 0.26809728 -0.030885495 -0.03052852 -0.118459694 0.02056914
0.10016931 0.017613307 0.008260094 -0.003051757 -0.013595696 0.03149459 0.040593866 0.011463077
0.05646415 -0.008349129 0.005385262 -0.026292466 0.027205179 0.1506769 -0.023002056 0.0127787385
0.017949138 0.0021389646 -0.017734438 0.051687863 0.018821947 -0.0666863 0.0017518607 0.0736615
-0.004301866 0.0020805246 0.008902043 0.048357423 -0.017304827 -0.0043902365 0.1706167 -0.0032215705
0.04499454 -0.08404701 -0.010621175 0.01354132 0.09704403 0.024938913 0.013515083 0.017161474
0.026268966 0.027527625 -0.0051299613 0.032842062 -0.08755025 0.05472495 -0.007259774 -0.07037153
-0.018169355 -0.027608551 -0.019373951 0.2758468 0.038581073 0.0002596991 0.009516249 0.31239563
-0.0020847952 -0.012011372 -0.03218376 0.17887288 -0.028229 -0.03882209 -0.1427128 0.0050844224
0.060354292 -0.003038026 0.016626589 -0.0013645258 -0.0026754558 0.027163398 0.050417226 -0.013485902
0.0368816 -0.0047281208 0.01913404 -0.0073124347 0.003279356 0.08984679 -0.015392441 0.011902724
0.014712875 -0.009906976 0.016709244 0.028595785 0.01957524 -0.05940091 0.0021844227 0.081885986
-0.024056727 -4.3386044e-05 0.036441896 0.08190375 -0.004528383 0.027039966 0.17152081 0.0057018325
0.075956136 -0.06360763 -0.010658274 0.014410782 0.07712064 0.03231853 0.015062057 0.0010426075
0.047738805 0.018249266 -0.025225572 -0.0017080981 -0.035659026 0.16216856 -0.020599322 -0.04207337
-0.010901868 0.003027064 -0.009617719 0.17662336 0.016483326 -0.009529327 0.006054298 0.056001898
-0.016046852 -0.003680736 -0.0028012241 0.18740147 -0.024166701 -0.14931367 -0.08452831 0.03948247
-0.020701962 -0.01624486 -0.01755922 -0.0022515587 0.0072812773 0.0224613 0.0050244457 0.01707835
0.050685875 -0.003270611 0.013079513 0.022901097 0.011220437 0.07697761 -0.00932753 0.00020958573
0.0011367498 -0.020361988 0.023824647 0.011344387 0.007913499 -0.062331222 -0.010774421 0.10585517
-0.03631558 0.008590931 0.06516602 0.10509329 -0.011634913 0.056197606 0.17170717 0.024378395
0.12515338 -0.063247815 -0.013584888 0.03129146 0.059530616 0.035074927 0.01650141 -0.0036775684
0.0691764 0.0075568105 -0.04719725 -0.018421011 0.0022971171 0.2340555 -0.02239772 -0.02257192

module.landmarkRegressioner.0.bias f4 [10]
00000000: be91 653d 07f1 ab3d c8cf bb3e 537b b43d
00000010: 04e8 1d3e f6d7 883e c2ad 873d 40d0 cf3e
00000020: 258e b33e d6d8 d33e
0.056047194 0.08395582 0.36681962 0.08812585 0.15420538 0.26727265 0.066249385 0.4058857
0.35069385 0.4137637

exp_avg f4 [10, 3, 3, 3]
00000000: 16d9 cfbb fb7d b13b ae0a a63b c99d 9abb
00000010: a541 8dbb 7896 043c 4b67 acbb 076d 08bc
00000020: 0beb eabb c574 48bb 2bf1 1c3c 836a 3c3c
00000030: 71d7 2dbb 1796 ca39 4180 683c c4d7 feba
00000040: af3a 21bb f3f4 2d3a b560 88ba c6e3 f83b
00000050: 7b2d 173c 8252 60ba 3668 ffba be68 0b3c
00000060: cae9 31ba ceb0 a0bb c28c 6cbb 864d 383d
00000070: 9e09 333d b5a3 053d a4b8 2e3d 48ad 493d
00000080: dc12 173d 197a c43c 2e57 ea3c 8e4d 033d
00000090: 7cd3 1b3d 6513 1a3d 97de e23c a75e fd3c
000000a0: 2c22 223d 7224 ec3c e297 433c 84be a43c
000000b0: d0c6 b83c 5726 d13c 0908 d33c c33d 823c
000000c0: b829 963c aad5 e63c e10a 763c dac5 1abb
000000d0: 86a4 b93b cb32 463c 2967 9c3b 7223 763c
000000e0: 5081 203c ca72 f23b 84f6 703c 6191 803c
000000f0: 241d fb3a 7544 1c3c 62ff 1b3c 2b01 1e3c
00000100: 8f50 813c 04b9 6c3c d86a 393c 389c 873c
00000110: 0d68 a63c 594f f53a eec9 193c 421c 183c
00000120: 39b8 f63b 5bad 4b3c 3910 283c fe62 553c
00000130: b840 813c f22b 993c da18 7d39 9970 ae3b
00000140: 5df7 e33b 4a87 1bbd 1629 0abd 726f e6bc
00000150: bb3b 4ebd 1aca 56bd b140 21bd afc0 69bd
00000160: 6dcb 31bd 9e5a 44bd 632a 06bc bf22 f9b9
00000170: dfca ae3b d996 c1bc 1903 9bbc 167a bcba
00000180: 8107 f2bc 59b4 5fbc 0a00 88bc 076f fc3b
00000190: 2fe9 1e3c 2c6e a93c 245d 303b ec00 e43a
000001a0: cb88 903c 5cf5 fcbb 20bd 603a 7e40 1bbb
000001b0: 9038 c0bc 1654 fabc a298 f3bc 6d89 b3bc
000001c0: a425 d9bc 0601 cdbc be23 b9bc 6c59 d2bc
000001d0: 3c0a a0bc 389f acbc 9ec3 eabc 83e1 e4bc
000001e0: a698 a0bc 3fea c8bc 2498 bbbc c7b4 a4bc
000001f0: 8e23 c9bc 02f3 97bc 747e 7cbc ae09 c3bc
00000200: d169 afbc a3fe 9fbc 3f3b a5bc 5452 9abc
00000210: 5faf 88bc 7930 9fbc 3e70 3fbc c32b b13b
00000220: 2311 483c c4e8 fc3b b89f 83ba 71c1 72b9
00000230: f666 23bc 0229 4bbb 7951 97b9 59aa cfbb
00000240: a771 0b3c d8eb 803c 94da 193c 5410 523b
00000250: 7994 413b 4cf1 9fbb 4ed0 993a b304 9e3b
00000260: ee04 3abb 6a86 803c 461a 653c 0088 bc3b
00000270: a750 1f3c 570d a63b 6f89 05bb bc87 663b
00000280: 78d2 993b 770a 05bb 8ae4 62bc d8f1 87ba
00000290: 3e38 1dbc d69a 143c 1a4c 21bc 498c febb
000002a0: afbd 103c 44e3 783c 8dfc 683c ef9d b438
000002b0: d4bd 493c ad2a e23b 361b b23c 352c ce3b
000002c0: 14ee 183c 7661 b63c 2595 ed3c 1d98 e83c
000002d0: 8744 96b9 316d ef3b bf8e 253c aa58 fd3c
000002e0: d798 433c 25d9 903c 9c22 043d ff10 053d
000002f0: 8236 203d e314 c1bc 299e f6bc 056f e4bc
00000300: 5105 e6bc 3a9a eebc 9947 dabc 1c84 dfbc
00000310: 0d07 ebbc ce96 fbbc b244 8fbc 64c8 c4bc
00000320: 98ec b3bc 98a4 babc ae1f d6bc 9298 babc
00000330: 0ca3 b8bc 99ad c4bc b809 dfbc 55c9 5ebc
00000340: 7299 a9bc 6de8 acbc 6f21 abbc 2a48 d1bc
00000350: b180 d1bc a3b2 b1bc d2db c0bc cd62 dcbc
00000360: 19c0 30bc 518f 40bc 8227 2dbc ad4d c93a
00000370: 424f aeba 3869 c5b8 2493 833b 98ef 1fba
00000380: 7430 ff38 7744 19bc daae 38bc c2e5 16bc
00000390: b13f 3d3b 7cbe b8b9 ac6b d239 e9d9 aa3b
000003a0: 5539 9a3a f7e3 b43a 9bc9 f7bb d3e7 09bc
000003b0: 2cd6 c2bb 5a8a 083b f227 ff39 5716 4eba
000003c0: b7c0 033c 555b 813b cba5 973b 5c70 58bc
000003d0: ef63 36bc a69f 04bb 6c90 80bc 6222 95bc
000003e0: 9c61 b5ba 2455 26bc ed75 13ba 2971 bbbb
000003f0: 9162 00bc 5017 78bb 5c4f 533b 34e6 08bc
-0.0063430173 0.0054166294 0.005067191 -0.0047185165 -0.004310804 0.008092515 -0.005261337 -0.008326775
-0.0071691326 -0.0030587178 0.009578983 0.011500004 -0.0026526118 0.00038640268 0.014190734 -0.0019442965
-0.0024601629 0.00066359265 -0.0010404798 0.007595512 0.009227152 -0.00085572165 -0.0019486013 0.008508859
-0.00067868514 -0.0049038893 -0.003609464 0.044995807 0.043710344 0.032626826 0.042656556 0.04923752
0.03688322 0.023984002 0.028606024 0.032056384 0.038043484 0.037616152 0.02769403 0.030928923
0.03958337 0.028825972 0.011938067 0.020110376 0.022555739 0.025530977 0.025760667 0.01589859
0.01833044 0.028178055 0.015017242 -0.0023616464 0.0056653647 0.012097071 0.00477304 0.015023099
0.0097964555 0.007398938 0.014707211 0.015694322 0.0019158465 0.009537806 0.009521337 0.009643833
0.015785484 0.014448408 0.011316977 0.016553983 0.020313287 0.0018715664 0.009386523 0.009284081
0.0075292853 0.012431468 0.010257774 0.01302409 0.01577793 0.018697713 0.00024137218 0.0053234813
0.0069569782 -0.03797082 -0.03373059 -0.028129313 -0.050349932 -0.052438833 -0.039368335 -0.057068523
-0.043406893 -0.04793798 -0.008188817 -0.0004751887 0.0053342427 -0.0236315 -0.018922376 -0.0014379646
-0.029544594 -0.013653838 -0.016601581 0.007703665 0.00969915 0.020682417 0.0026910985 0.0017395294
0.017643353 -0.007719679 0.00085731037 -0.0023689563 -0.023464471 -0.030557673 -0.029735867 -0.021916116
-0.026507206 -0.025024902 -0.022600051 -0.025677405 -0.01953613 -0.021072015 -0.02865773 -0.027939564
-0.019604038 -0.02452576 -0.022899695 -0.020105733 -0.024553087 -0.018548492 -0.015411008 -0.023808327
-0.021412762 -0.0195306 -0.020169852 -0.018838085 -0.016685186 -0.019432293 -0.0116844755 0.005406828
0.012211117 0.0077181775 -0.0010042107 -0.00023150981 -0.009973278 -0.0030999784 -0.00028861666 -0.0063374457
0.008510984 0.015737459 0.009390492 0.003205319 0.002953796 -0.0048810598 0.0011735053 0.0048223375
-0.0028384286 0.015689094 0.013983315 0.005753517 0.009723819 0.005067508 -0.0020376106 0.0035176119
0.0046942793 -0.0020300427 -0.013848433 -0.0010371758 -0.009595929 0.009070119 -0.009844804 -0.007768188
0.008834287 0.015190903 0.014220369 8.612486e-05 0.012313325 0.00690206 0.02174149 0.006291891
0.009334106 0.02226327 0.029001782 0.028392846 -0.00028661286 0.007306718 0.010104834 0.030926067
0.011938295 0.017681668 0.03225957 0.032486912 0.039114483 -0.02356953 -0.030104714 -0.02788497
-0.028078707 -0.029126275 -0.026645469 -0.027284674 -0.028689886 -0.030711558 -0.017488811 -0.024021335
-0.021963403 -0.022783563 -0.026138153 -0.02277783 -0.022538684 -0.024008559 -0.027226314 -0.013597806
-0.020703051 -0.021106923 -0.020889966 -0.025547106 -0.02557406 -0.021691626 -0.023542318 -0.02690258
-0.010787987 -0.011752919 -0.010568501 0.0015358232 -0.0013298767 -9.4132905e-05 0.0040153433 -0.0006101071
0.000121683726 -0.009354702 -0.011272157 -0.009210052 0.0028877074 -0.00035237137 0.00040134543 0.005213965
0.0011766354 0.0013800849 -0.007561875 -0.008417088 -0.0059459414 0.0020834417 0.00048667152 -0.0007861605
0.008041552 0.003947655 0.0046279184 -0.013210382 -0.011132224 -0.002023676 -0.015693866 -0.018204872
-0.0013838294 -0.010152135 -0.00056251773 -0.005720277 -0.007836 -0.0037855692 0.0032243347 -0.008355666

exp_avg_sq f4 [10, 3, 3, 3]
00000000: db5d b73c 3bba b43c 930b b23c 1fea b43c
00000010: f408 b23c 17f9 b23c 88ae b03c 542f b03c
00000020: d73d b23c 6491 b23c d790 b03c 9f4c af3c
00000030: 7367 b13c 6dfe ae3c 413b b13c 4a17 ae3c
00000040: fefa ae3c 0af6 b03c 1473 a73c 43aa a53c
00000050: 0b0b a73c 9a5d a63c 4841 a53c ffba ab3c
00000060: f784 a53c 951b a93c 8eb3 ab3c 3fcc e53b
00000070: a67d e23b fa47 d83b 2d55 e53b 5d15 e13b
00000080: 8c90 d63b dbe9 de3b b545 dc3b 740f d53b
00000090: f328 d43b 7754 d03b 7304 c63b 8f65 d43b
000000a0: 5dbb ce3b 29e2 c23b 6bac cc3b 71be c93b
000000b0: a51c c23b 550a cc3b 44c8 c83b 6907 c33b
000000c0: 50e9 cc3b dffe c63b 6f5f c23b d892 c63b
000000d0: e942 c43b cf38 c13b f369 673c 8159 5a3c
000000e0: 4cf7 5e3c 1657 6a3c 9b67 5d3c e2c2 653c
000000f0: fed2 653c 1726 633c d553 683c 67da 563c
00000100: a4b9 4d3c 72a5 503c 219c 5b3c 94e1 513c
00000110: bb6f 573c d97a 593c 07cb 573c 0f9f 5a3c
00000120: f29d 523c 03bb 523c 54cb 513c b28b 593c
00000130: 3fe0 563c 798c 563c ebdc 593c 738e 5a3c
00000140: b561 573c 60c0 4f3e af17 4e3e fe32 4e3e
00000150: f801 4e3e 47f3 4a3e eb97 513e 8393 493e
00000160: 7051 4a3e be13 4d3e 219a 3f3e b6a2 3c3e
00000170: 5af6 3c3e c4d1 3d3e 2f71 393e 606e 403e
00000180: decd 383e 1c5a 383e 7d8c 3c3e 9439 363e
00000190: 06e0 313e b469 313e c1eb 333e 035a 2f3e
000001a0: 6986 343e 51f0 303e a09c 2e3e b842 313e
000001b0: 3a9e 943c dc0e 983c 927c 9a3c 33e3 8f3c
000001c0: 2a48 903c f144 933c 94d3 8a3c 15d0 8a3c
000001d0: 4ea1 8d3c e007 883c 432f 8c3c e409 8e3c
000001e0: 1f89 833c ed0b 843c 45f7 863c 7249 7e3c
000001f0: 0b9c 7f3c cd2d 823c 4bfa 7e3c 9783 833c
00000200: 6f7a 843c 8161 763c 08b6 783c 3802 7d3c
00000210: c8d0 723c cc52 753c 30a2 773c 5a87 d33b
00000220: 40db d43b 597f d63b eca4 c93b e2ca cf3b
00000230: 241f dd3b d165 d13b 65bd d33b c642 da3b
00000240: a26c d13b 6145 d13b fe41 d33b 6623 cd3b
00000250: 16d7 d13b 874a de3b 489a d23b 71f1 d63b
00000260: 95cb dc3b 3c7c ea3b 155b e03b f20d de3b
00000270: 2622 eb3b 1703 e43b a307 ed3b 2cac ee3b
00000280: 1efa f23b e4e9 ee3b 4d44 8c3d ca38 8d3d
00000290: 48c9 963d 6307 8a3d be88 963d 33d3 973d
000002a0: ef67 883d 84dd 913d a053 913d 3bd3 873d
000002b0: 96db 883d f1c2 903d 23e0 843d 10d4 913d
000002c0: 4f1c 913d e39c 833d 3345 8e3d dfd4 8b3d
000002d0: 5a6c 6a3d 94a2 673d eb37 6d3d 879a 643d
000002e0: 4d13 703d 594e 6b3d 8daa 623d c4e7 6e3d
000002f0: 63f3 663d 36c2 1b3c d5b8 183c 8833 173c
00000300: 2bd5 1f3c 9e63 1c3c a2b2 183c 9b42 233c
00000310: 125d 203c 666f 1b3c 6841 133c 863b 103c
00000320: 019a 0e3c d79e 163c 6e0b 143c be68 103c
00000330: 7968 193c 35c6 173c dd65 133c 4d96 0e3c
00000340: e64e 0d3c d15c 0c3c 0ed6 0f3c d5fc 0e3c
00000350: 3ae7 0d3c 2786 113c d9ef 103c 5320 0f3c
00000360: 13cd 903a 3e63 8f3a 18e5 8b3a 2764 913a
00000370: 40f1 983a bad0 933a 37bf 8f3a 1f8f 973a
00000380: f911 963a 79af a33a 5409 a83a c209 9e3a
00000390: 91ff ae3a 43f8 bb3a 77f9 b33a 4682 a63a
000003a0: 288e ae3a 5f83 ae3a d185 063b 498c 0c3b
000003b0: 8bd3 043b 211e 123b 1185 1e3b b16c 173b
000003c0: 6816 073b 7ab5 0d3b 4f57 0c3b e813 733c
000003d0: 54ab 783c 28dc 653c 8a55 6e3c 5c82 7b3c
000003e0: 9210 6d3c 724d 633c ee9b 703c 4774 673c
000003f0: 045a 5a3c 5b4a 603c 8b12 503c cb21 563c
0.022383621 0.022061458 0.021734035 0.022084294 0.021732785 0.02184729 0.021567598 0.021506943
0.021758003 0.021797843 0.02155344 0.02139884 0.021655774 0.021361554 0.0216347 0.02125134
0.021359917 0.021601696 0.020440616 0.020222789 0.020391008 0.020308305 0.02017273 0.02096319
0.020205004 0.020643035 0.020959642 0.0070128734 0.006911951 0.006600377 0.006998679 0.006869002
0.006547993 0.00680278 0.006722177 0.0065020863 0.006474608 0.0063577252 0.006043011 0.0064818333
0.0063089565 0.0059473705 0.0062461398 0.0061567356 0.005923825 0.0062268176 0.006127389 0.005951811
0.006253399 0.0060728635 0.0059317867 0.0060599856 0.0059894216 0.0058966647 0.014124381 0.013327003
0.013608765 0.0143029895 0.013513471 0.014023514 0.014027355 0.013864062 0.014180143 0.013113595
0.012556467 0.012734758 0.013403923 0.01281013 0.013149197 0.013273918 0.013170964 0.013343587
0.01285504 0.01286197 0.012804825 0.013277935 0.013114988 0.013095015 0.0132973 0.013339627
0.013145854 0.20288229 0.20126222 0.2013664 0.20117939 0.19819365 0.20468108 0.19685178
0.19757628 0.20027062 0.1871114 0.18421444 0.1845335 0.1853705 0.18109582 0.18792105
0.18047282 0.18003124 0.18412967 0.17795402 0.17370614 0.17325479 0.17570402 0.1712418
0.17629398 0.17279173 0.17051935 0.17310607 0.018141855 0.018561773 0.018858228 0.017564392
0.017612536 0.01797721 0.016946591 0.016944924 0.01728883 0.016605318 0.01711238 0.0173387
0.016056595 0.016118968 0.01647533 0.01552044 0.015601168 0.01589098 0.015562604 0.016053958
0.016171662 0.015037895 0.015180118 0.0154424235 0.014820285 0.014973354 0.015114352 0.006455344
0.006495863 0.0065459427 0.0061536934 0.006341324 0.006748097 0.0063903113 0.0064617866 0.006660792
0.006391124 0.0063864444 0.006447076 0.0062603233 0.006403814 0.0067837867 0.006427083 0.006559544
0.006738136 0.007155923 0.0068467953 0.0067765648 0.0071757017 0.006958376 0.0072335764 0.007283708
0.00741507 0.0072910655 0.06848965 0.06895597 0.0736261 0.0673969 0.073503 0.0741333
0.06660449 0.07122329 0.07096028 0.06632086 0.06682508 0.07068432 0.06488063 0.07120526
0.070854776 0.06426408 0.069467925 0.06827711 0.05723224 0.05655153 0.057914656 0.05581143
0.058612157 0.057447765 0.05533843 0.058326498 0.056384455 0.009506753 0.009321411 0.009228595
0.009755413 0.009545235 0.009319933 0.00996461 0.009787815 0.009487009 0.008987762 0.008803254
0.00870371 0.009193144 0.009035928 0.008814035 0.009363287 0.009263565 0.008996454 0.008702827
0.008624768 0.008567051 0.008779062 0.008727272 0.008661086 0.008882082 0.008846247 0.008735734
0.0011047445 0.0010939611 0.0010673134 0.001109247 0.0011668578 0.0011277415 0.0010967021 0.0011563039
0.0011449448 0.0012488208 0.0012820163 0.0012057351 0.0013351311 0.0014340956 0.0013730963 0.001270362
0.0013317512 0.0013314298 0.0020526538 0.002144592 0.002026769 0.002229579 0.00241882 0.0023105557
0.002061272 0.002162306 0.0021414345 0.014836289 0.015177567 0.01402954 0.014546761 0.015350904
0.014469283 0.013873445 0.014685614 0.014126844 0.013327125 0.013689603 0.0126997335 0.01306958

exp_avg f4 [10]
00000000: 101b 62bc 1d8b 2fbc 846a 95bc 0c8f d4bd
00000010: 3dbf a13c f049 d6ba 5c2a bcbc f539 333d
00000020: 659e b9bb 966b 593d
-0.0138003975 -0.01071432 -0.018239267 -0.103788465 0.01974451 -0.0016348939 -0.022969417 0.043756444
-0.005664634 0.053081118

exp_avg_sq f4 [10]
00000000: 6166 303d bb78 9c3c b419 0f3d b1cb d83e
00000010: 1999 333d 606c 6d3c 63d7 1f3e bf34 bc3c
00000020: 87fb 763b 5e5d 143d
0.043066386 0.019100538 0.03493662 0.42342904 0.043847177 0.014491171 0.15609507 0.02297437
0.0037686543 0.036221854
