scripts/models/pnet_20200917_final.pkl (torch_old, 60900 bytes, 24 tensors)

module.features.0.weight f4 [10, 3, 3, 3]
0	0xbf41fe8c	-0.7577903
1	0x3f8a451f	1.0802344
2	0xbf31f965	-0.6952117
3	0x3f0e9d62	0.557089
4	0xbf89d391	-1.076769
5	0x3f0cf46e	0.5506047
6	0xbd13c870	-0.036079824
7	0x3eb48aa4	0.35262024
8	0x3c286f48	0.010280438
9	0x3dbcceb1	0.09219111
10	0x3ea02645	0.31279197
11	0xbc68e46e	-0.014214618
12	0xbdacac94	-0.08431354
13	0x3e881a1b	0.26582417
14	0xb9b56af2	-0.0003460269
15	0xbd9cac5d	-0.07650063
16	0xbdf2d49e	-0.1185696
17	0xbe569016	-0.20953402
18	0x3f2dc00e	0.6787118
19	0xbfb53fe6	-1.4160125
20	0x3f38e20e	0.7221993
21	0xbf021993	-0.50820273
22	0x3f5fd62f	0.87436193
23	0xbf14a019	-0.5805679
24	0x3dfd79fb	0.123767816
25	0xbe837249	-0.2567313
26	0x3e53a3b7	0.20667921
27	0x3db97cda	0.09057017
28	0x3e37122f	0.1787803
29	0x3e69a3aa	0.22816339
30	0x3d767623	0.060171258
31	0x3ce466d0	0.027881056
32	0xbdd142ac	-0.10217795
33	0xbc902bc8	-0.017599002
34	0xbd596f65	-0.05308475
35	0xbec84888	-0.39117837
36	0x3e657e84	0.22411543
37	0x3e947ccc	0.29001462
38	0x3df6d941	0.12053157
39	0x3d54a9e6	0.05191984
40	0xbadec408	-0.0016995678
41	0xbe1dc7f9	-0.15408315
42	0xbccaf034	-0.02477274
43	0xbd658c85	-0.056042213
44	0xbe4883d8	-0.19581544
45	0xbe14b3c6	-0.14521703
46	0xbeec6995	-0.46174303
47	0xbec6fab8	-0.38863158
48	0xbda9a1f2	-0.08282842
49	0xbe293aaa	-0.16526285
50	0x3e54e5ab	0.20790736
51	0xbc11e249	-0.008904048
52	0x3c2aea65	0.010431861
53	0x3f174845	0.5909465
54	0xbccb54f0	-0.024820775
55	0xbc7ec37f	-0.01554954
56	0x3cbef765	0.023311326
57	0x3bf35cd6	0.0074268384
58	0x3e14818f	0.14502548
59	0x3e4f28b1	0.20230366
60	0xbb86384f	-0.004096068
61	0xbb45ab27	-0.003016183
62	0xbd87dccc	-0.066339105
63	0xbc1b20cb	-0.009468268
64	0xbc783d61	-0.015151353
65	0xbbf401de	-0.0074465116
66	0x3cbc0aac	0.022954307
67	0x3cd94c48	0.026525632
68	0x3bf2c5f9	0.007408854
69	0xbd82308e	-0.06356917
70	0xbd2f27ba	-0.042762496
71	0x3d03a731	0.032141868
72	0x3d9725c9	0.07380254
73	0x3e07b305	0.13251884
74	0x3da319d6	0.07963912
75	0x3d3d72b4	0.046251968
76	0xbcf1cae3	-0.02951569
77	0xbd612b70	-0.054973066
78	0xbc04c486	-0.008103495
79	0x3d4c9288	0.04994443
80	0x3e062c78	0.13102901
81	0xbd2036e9	-0.039114866
82	0x3df5bd57	0.11999004
83	0x3ceda4ba	0.029009212
84	0x3ce07628	0.027400091
85	0xbba83da4	-0.0051343013
86	0x3c8f799f	0.017514048
87	0xbb2273a0	-0.0024788156
88	0x3dc477c7	0.09593158
89	0xbdbfd8d3	-0.09367528
90	0x3ca595b5	0.020212987
91	0xbe86ff77	-0.2636678
92	0xbed27b46	-0.41109675
93	0xbc31f9f9	-0.010862821
94	0xbeb88812	-0.36041313
95	0xbed69101	-0.41907504
96	0x3c629d24	0.013831411
97	0xbdc75bc6	-0.09734301
98	0xbe15a82e	-0.14614937
99	0xbc49f1ca	-0.012325713
100	0x3dc40778	0.09571737
101	0x3eba6bbf	0.3641033
102	0x3b912521	0.004429475
103	0x3ec6b721	0.3881159
104	0x3ee1b549	0.44083622
105	0x3c5735a6	0.013135349
106	0xbcd13f1e	-0.025542792
107	0x3e788731	0.24270321
108	0xbd5107ab	-0.051032703
109	0xbd12298b	-0.03568415
110	0xbca967f2	-0.020679448
111	0xbb9e452f	-0.0048300247
112	0xbd32ebef	-0.043682035
113	0xbc2d9896	-0.010595461
114	0x3dd936d4	0.10606161
115	0xbbc4eb15	-0.0060094693
116	0x3b8a8bb9	0.004228082
117	0xbde020a0	-0.10943723
118	0x3bb14a14	0.005410442
119	0x3c6ae809	0.014337548
120	0xbcf1f388	-0.02953507
121	0xbb83546e	-0.0040078675
122	0xbd0ebdb7	-0.034848895
123	0x3cd3e4ef	0.025866
124	0x3d3b9c1b	0.04580317
125	0x3c93be85	0.018035183
126	0x3ebb8a95	0.36629167
127	0x3f0a0699	0.5391632
128	0x3e9d2d6f	0.30698726
129	0x3c15a8f8	0.009134524
130	0x3b6ef1cc	0.003646004
131	0x3d01f26e	0.03172534
132	0xbeb70f31	-0.35753778
133	0xbef296fa	-0.4738081
134	0xbe965659	-0.29362753
135	0x3eac08ba	0.33600408
136	0xbe02749f	-0.127398
137	0xbe667070	-0.22503829
138	0x3eab01e0	0.33399868
139	0xbe3b4abd	-0.18290229
140	0xbe1a7511	-0.1508372
141	0x3e1680f3	0.14697628
142	0xbd8240af	-0.06359994
143	0xbd850383	-0.064948104
144	0x3d5af937	0.053460326
145	0xbb8e45e1	-0.0043418263
146	0xbd0b6669	-0.034033213
147	0x3cd21f91	0.025649818
148	0x3b696ae7	0.0035616697
149	0xbd4c86b0	-0.049933136
150	0x3dc3fbc0	0.09569502
151	0xbd1183b8	-0.035526007
152	0xbd9f8004	-0.07788089
153	0xbf39483c	-0.72375846
154	0x3e775e33	0.24157028
155	0x3ef8464d	0.48491135
156	0xbf265f49	-0.64989144
157	0x3e92daa8	0.28682446
158	0x3ec91d95	0.39280382
159	0xbe881685	-0.2657968
160	0x3dc85a4b	0.09782847
161	0x3e192618	0.14955938
162	0x3cc612e8	0.024178937
163	0xbdfe59c1	-0.12419463
164	0x3d38f0e9	0.045151625
165	0xbd047a3b	-0.03234313
166	0x3dabe4bc	0.08393237
167	0xbdaa4bca	-0.08315237
168	0xbd159bcf	-0.036525544
169	0x3d151aa4	0.03640236
170	0x3d71b3e9	0.059009466
171	0x3e158b47	0.14603911
172	0xbe25e656	-0.16201147
173	0x3d8017e4	0.06254557
174	0x3dfd1e83	0.12359335
175	0xbe2e8540	-0.17043018
176	0x3db12cc5	0.08651117
177	0x3dd3633b	0.10321661
178	0xbdbec019	-0.093139835
179	0xbcaa4a76	-0.020787459
180	0x3e1c2f32	0.15252379
181	0xbedaacb3	-0.42709884
182	0x3e66fc36	0.22557148
183	0x3ea26e87	0.3172495
184	0xbf418f16	-0.75608957
185	0x3ee72d5a	0.45151788
186	0x3d7ec0a7	0.062195446
187	0xbe42efe8	-0.1903683
188	0x3de25ea6	0.11053209
189	0xbe2ddc12	-0.16978481
190	0xbe038c31	-0.12846448
191	0x3d4de694	0.050268725
192	0xbe1dd960	-0.15414953
193	0xbe21bdc5	-0.15795048
194	0xbdf08668	-0.11744386
195	0xbd2bfb48	-0.041987687
196	0xbdf7300f	-0.12069713
197	0xbe5d4eb8	-0.2161206
198	0x3ee4e99f	0.4470949
199	0x3d962db7	0.07332938
200	0xbe73fc74	-0.23826772
201	0x3f0a5813	0.5404064
202	0x3dd47705	0.10374264
203	0xbdea98d0	-0.11454928
204	0x3ea5f877	0.32416126
205	0x3e128afb	0.1431083
206	0x3d0fed94	0.03513868
207	0xbe5a0a1a	-0.21292916
208	0xbc3aeb15	-0.011408587
209	0x3dd1d9d1	0.10246623
210	0xbe9859c7	-0.29755995
211	0x3d8f1262	0.06985928
212	0x3e6c743a	0.23091212
213	0xbe8cf77a	-0.2753256
214	0xbce7c310	-0.028291255
215	0x3e0e8fea	0.13922086
216	0x3d7df782	0.06200362
217	0x3d4cd96d	0.05001204
218	0x3d36a157	0.04458746
219	0x3dd72d6c	0.105067104
220	0xbc7f0403	-0.015564921
221	0xbdf52705	-0.11970333
222	0xbd7651f2	-0.060136743
223	0xbe2a5e0d	-0.1663744
224	0xbca96d90	-0.020682126
225	0x3deb7459	0.11496801
226	0x3d59e742	0.05319906
227	0xbbdad24a	-0.0066779004
228	0xbc89f0f2	-0.016838524
229	0xbcef1edc	-0.02918952
230	0x3db2379c	0.08702013
231	0x3b965eb0	0.0045889243
232	0xbd0950c7	-0.0335243
233	0xbd8c3132	-0.06845321
234	0xbec9b167	-0.3939316
235	0xbf0c327c	-0.54764533
236	0xbe689ecc	-0.22716826
237	0xbe779fd3	-0.24182062
238	0x3c46f335	0.012142946
239	0x3e5a69ed	0.2132947
240	0x3e5348f3	0.20633297
241	0x3f1a4e3c	0.60275626
242	0x3ec62ccd	0.38706055
243	0xbdbe9e0c	-0.09307489
244	0x3d4deb28	0.05027309
245	0x3dff8d53	0.12478127
246	0xbd95af5d	-0.073088385
247	0xbdc8f7c1	-0.0981288
248	0x3d7859fa	0.060632683
249	0x3d5b4a42	0.053537615
250	0xbde4e374	-0.11176196
251	0xbd21c1d6	-0.039491497
252	0x3d01b1fb	0.031663876
253	0x3dad171f	0.084516756
254	0x3d82a12b	0.063783966
255	0x3c14d82c	0.0090847425

module.features.0.bias f4 [10]
0	0xbeaedfb1	-0.34155038
1	0x3e94ba0d	0.29048195
2	0x3e646afa	0.22306433
3	0x3e82c3fd	0.25540152
4	0x3e05aba9	0.13053764
5	0xbddb26d9	-0.10700769
6	0xbe1d5edf	-0.15368222
7	0x3eb4f95a	0.3534649
8	0x3e2d4eb0	0.16924548
9	0x3d78be39	0.060728285

module.features.2.weight f4 [16, 10, 3, 3]
0	0x3d315afa	0.043299653
1	0xbdacbe89	-0.08434779
2	0xbd1fba25	-0.03899588
3	0xbdccc33a	-0.09998174
4	0xbe11e8ef	-0.14249013
5	0xbd7e7752	-0.06212551
6	0xbe344394	-0.17603904
7	0xbda5c366	-0.0809391
8	0xbdd2a11a	-0.10284634
9	0xbd8f63a1	-0.070014246
10	0xbde88c9f	-0.11354946
11	0xbdcd10ea	-0.10012992
12	0xbc1e079c	-0.009645369
13	0xbd458d5e	-0.04823052
14	0xbe03bce7	-0.1286503
15	0x3d693e9c	0.056944475
16	0xbdcef32f	-0.10104977
17	0xbd87ce72	-0.06631173
18	0x3e065c75	0.13121207
19	0x3d6cbe57	0.05779871
20	0x3cfb066a	0.030642707
21	0xbd95d5a6	-0.07316141
22	0xbd2d1130	-0.04225272
23	0xbd57da01	-0.05269814
24	0x3d7bc24f	0.061464604
25	0x3cd7d7d9	0.026348041
26	0x3e201604	0.15633398
27	0x3c070553	0.0082410155
28	0x3df8d5c8	0.121501505
29	0xbc78eb4d	-0.015192819
30	0xbce4e3e9	-0.027940707
31	0x3e116d9e	0.14201972
32	0xbdb031b6	-0.086032316
33	0xbd4f4124	-0.050599232
34	0x3e2d58b8	0.16928375
35	0x3b3ab106	0.0028486862
36	0x3cd6fc27	0.026243282
37	0x3d3a68c2	0.04551006
38	0x3b42b0c5	0.0029707414
39	0xbde8ebff	-0.11373138
40	0xbe87ca54	-0.26521552
41	0xbdcea37f	-0.10089778
42	0xbe98c7ad	-0.2983984
43	0xbed261d2	-0.41090256
44	0xbe9d9da9	-0.30784348
45	0x3e0f0b1d	0.13969083
46	0x3d9369a2	0.07197882
47	0x3da88c89	0.0822993
48	0xbbbb53e4	-0.0057167877
49	0xbc9224d5	-0.017839829
50	0x3d46e96a	0.048562445
51	0x3ca61e75	0.020278195
52	0x3cc88fe2	0.024482671
53	0xbcc25074	-0.023720004
54	0x3d2cc2a8	0.042177826
55	0x3d32bd92	0.04363782
56	0x3afd1854	0.0019309619
57	0x3c70675d	0.014673081
58	0xbc6e3275	-0.014538397
59	0x3c8c4384	0.017122038
60	0x3c5fb2d1	0.013653473
61	0xbc78896d	-0.015169484
62	0xbc886e7b	-0.016654244
63	0x3e09fc7f	0.13475226
64	0xbd9fbbd8	-0.077995
65	0xbd8a6013	-0.06756606
66	0x3e02e467	0.12782441
67	0x3d2507cc	0.04029064
68	0x3d5a11b4	0.05323954
69	0xbcf12ffc	-0.029441826
70	0xbdd1a1d4	-0.102359444
71	0x3d711686	0.05885937
72	0xbc3c8551	-0.0115063945
73	0xbd0efde1	-0.034910087
74	0x3d9cd07f	0.07656955
75	0x3ccce133	0.025009727
76	0x3d062b2e	0.032756023
77	0x3d07c514	0.033146933
78	0xbcf754ce	-0.030191805
79	0x3d51620f	0.051118907
80	0x3e00cc85	0.12578018
81	0xbd049be3	-0.032375228
82	0xbdcc4246	-0.09973578
83	0x3cb99659	0.0226547
84	0x3d56577c	0.052329525
85	0x3dfb4bf7	0.122703485
86	0x3d03f011	0.032211367
87	0x3df6d197	0.12051695
88	0x3dff9018	0.124786556
89	0x3d055f83	0.03256179
90	0x3e0ea4f9	0.1393012
91	0xbc982cb1	-0.018575998
92	0xbd824298	-0.06360358
93	0x3d805827	0.06266814
94	0xbdb94f0c	-0.0904828
95	0xbe0d5068	-0.13800204
96	0x3d616fd5	0.055038292
97	0x3a86fac5	0.0010298124
98	0xbc8785e6	-0.01654334
99	0x3d07f055	0.033188183
100	0x3cbc1b38	0.022962198
101	0xbd8bae7d	-0.068203904
102	0x3d2c69f3	0.04209323
103	0xbd5c2942	-0.053750284
104	0x3b9307d3	0.0044870167
105	0xbd810c44	-0.063011676
106	0x3c8681e5	0.01641936
107	0x3dd31cde	0.1030824
108	0x3d87c01a	0.06628437
109	0xbd8901d6	-0.06689803
110	0x3d418925	0.04724993
111	0xbda4deae	-0.08050285
112	0xbd941547	-0.07230621
113	0x3dba49c3	0.090961
114	0x3d525288	0.05134824
115	0xbc4cc511	-0.012498156
116	0x3e00f3b9	0.12592973
117	0xbd242d9a	-0.04008255
118	0xbce02001	-0.02735901
119	0x3dda16d6	0.10648887
120	0xbd7653c1	-0.060138468
121	0x3d1abfdb	0.037780624
122	0x3cee2c37	0.029073818
123	0x3af38333	0.0018578529
124	0xbd14bc41	-0.036312345
125	0x3d8377c1	0.064193256
126	0xbc452187	-0.012031919
127	0xbcde6726	-0.027148794
128	0xbc99a26b	-0.018754205
129	0x3d308ddb	0.043104034
130	0xbc4ca1d2	-0.012489753
131	0xbe094a8c	-0.13407344
132	0x3d02dab4	0.031946853
133	0x3d3f527c	0.046709523
134	0x3e25c9d2	0.1619027
135	0x3d2da099	0.042389486
136	0xbda1e164	-0.07904318
137	0xbea7c722	-0.32769114
138	0xbce1f6dc	-0.027583532
139	0xbe4307c0	-0.19045925
140	0xbead7fbb	-0.33886513
141	0x3d8903cf	0.066901796
142	0xbd39593b	-0.045251112
143	0xbdc21248	-0.09476143
144	0x3cd454f3	0.025919413
145	0xbdb0676b	-0.086134754
146	0xbe814953	-0.25251254
147	0xbceff928	-0.029293612
148	0xbee4a13f	-0.4465427
149	0xbedd392d	-0.43207684
150	0x391429b8	0.00014129921
151	0xbdc5185e	-0.09623788
152	0xbd625f95	-0.055266935
153	0x3d093257	0.033495273
154	0x3c4651b3	0.01210444
155	0xbc8c41a9	-0.017121153
156	0x3d581a57	0.052759495
157	0x3c1c44da	0.0095379
158	0x3d7832c7	0.0605953
159	0x3c560a32	0.013063954
160	0xbdd08922	-0.10182406
161	0xbd3838d0	-0.044976056
162	0x3d82a0a3	0.06378295
163	0x3e33bd9e	0.17552802
164	0x3df89c76	0.121392176
165	0x3d655b49	0.05599526
166	0x3e62f2e6	0.22162971
167	0x3e11e62d	0.14247961
168	0x3d45290b	0.048134845
169	0xbafc309a	-0.0019240559
170	0xbd3b8884	-0.04578449
171	0xbdb64c6e	-0.089012966
172	0xbdaa2172	-0.083071604
173	0x3d345a51	0.044031445
174	0xbdc38a0d	-0.095478155
175	0xbdf54726	-0.11976461
176	0x3d40b9a9	0.04705206
177	0xbdaa548f	-0.083169095
178	0xba4fe382	-0.00079303246
179	0x3dc429ee	0.0957831
180	0x3e22f046	0.1591197
181	0x3dc48c88	0.09597117
182	0x3d2c6255	0.042085964
183	0x3dc41c47	0.09575706
184	0x3d099d1a	0.03359709
185	0xbd4e6411	-0.0503884
186	0x3cdf6fc8	0.027274981
187	0xbcd144f1	-0.02554557
188	0xbdbb46db	-0.09144374
189	0xbe12c223	-0.1433187
190	0xbca20155	-0.019776026
191	0xbc389443	-0.011265817
192	0xbd286f27	-0.041121628
193	0x39db30ed	0.00041807388
194	0xbc207f82	-0.009796025
195	0xbd2f517d	-0.042802323
196	0xbdd15f2d	-0.102232315
197	0x3dfa0167	0.12207299
198	0xbd11e357	-0.0356172
199	0xbdd67260	-0.10471034
200	0x3b96b6de	0.004599436
201	0x3daa14e2	0.08304764
202	0x3e1880f7	0.14892946
203	0xbcd81764	-0.026378341
204	0x3d876940	0.06611872
205	0x3c785226	0.015156304
206	0xbd9ea36f	-0.07746016
207	0x3d1580ec	0.036499903
208	0xbdbf4672	-0.09339608
209	0x3d6bc56e	0.05756133
210	0x3d968d44	0.07351163
211	0x3d546522	0.05185426
212	0x3d558700	0.0521307
213	0xbd9e4735	-0.077284254
214	0x3e55ca1e	0.20877883
215	0xbe306af8	-0.17228305
216	0xb86cb5f5	-5.6436245e-05
217	0xbda0bef2	-0.0784892
218	0xbd026bdb	-0.03184114
219	0x3b014802	0.0019726758
220	0x3be0b068	0.0068569668
221	0xbcb43b0b	-0.02200081
222	0x3d6b071b	0.057379823
223	0xbc1295c6	-0.008946842
224	0x3d30a82c	0.04312913
225	0xbd3527d0	-0.04422742
226	0x3d9f53b8	0.0777964
227	0x3d600600	0.054693222
228	0x3c53e30e	0.012932552
229	0xbb1f21b0	-0.0024281554
230	0xb8b0354a	-8.40226e-05
231	0x3d5f1811	0.05446631
232	0xbd4334e2	-0.047657855
233	0x3cdf4095	0.027252475
234	0x3dc1bfd6	0.09460418
235	0x3e73f3d1	0.23823477
236	0x3df2b3a3	0.11850669
237	0x3d63f3e8	0.05565253
238	0x3dc76fa7	0.09738093
239	0x3d6ceb11	0.057841364
240	0x3d26636e	0.040622167
241	0xbb2ddda3	-0.002652981
242	0x3c17541f	0.009236365
243	0xbdbd99a5	-0.09257821
244	0x3d777145	0.060410757
245	0xbe1273be	-0.14301965
246	0xbc8ed7c0	-0.017436862
247	0x3c8c80a1	0.017151179
248	0x3d6d707e	0.05796861
249	0x3e1057ed	0.14096041
250	0xbd7cd52b	-0.06172673
251	0x3d411969	0.047143374
252	0xbdb1787d	-0.086655594
253	0x3c6c9107	0.014438874
254	0x3e35c32f	0.17750238
255	0xbd54e738	-0.05197832

module.features.2.bias f4 [16]
0	0x3e0a3bd3	0.13499384
1	0x3dcd33cc	0.10019645
2	0x3e64ee05	0.22356422
3	0x3e27a3fb	0.16371147
4	0x3d4f23ed	0.05057137
5	0xbdbd8140	-0.09253168
6	0xbe308cb2	-0.17241171
7	0xbcbee5af	-0.023302881
8	0x3d5eb3ca	0.05437068
9	0xbda2e00c	-0.0795289
10	0xbdb17e36	-0.08666651
11	0xbe556233	-0.20838241
12	0x3c29831f	0.010346203
13	0x3e474e5f	0.1946349
14	0xbd1a9c06	-0.03774645
15	0x3e8892dc	0.26674545

module.features.4.weight f4 [32, 16, 3, 3]
0	0xbcbff590	-0.023432523
1	0x3b926132	0.004467153
2	0x3cbbb93a	0.022915471
3	0x3c89a93e	0.016804334
4	0xbc6f2b28	-0.014597692
5	0x3cf0f0ac	0.029411636
6	0x3ce073f5	0.027399043
7	0x3b787ea2	0.0037917276
8	0xbc678e22	-0.014133008
9	0x3b791b8b	0.0038010802
10	0x3c864f60	0.01639527
11	0x3cc23128	0.02370508
12	0xba7c9b65	-0.00096361927
13	0xbd36a7a7	-0.04459348
14	0x3d32777f	0.04357099
15	0x3d5c8162	0.053834327
16	0xbcef0874	-0.029178835
17	0xbd23401f	-0.039856073
18	0x3b240df5	0.0025032733
19	0x3c471a64	0.012152288
20	0x3c474bbf	0.012164055
21	0xbd32990c	-0.043602988
22	0xbc19413e	-0.009353934
23	0xbd14b735	-0.036307532
24	0xbd2efe61	-0.042723063
25	0x3bd62636	0.006535317
26	0xbd15c473	-0.0365643
27	0x3cd82f58	0.026389763
28	0x3bba0481	0.0056768064
29	0x3cb43dcd	0.022002125
30	0x3d72bdd1	0.059263054
31	0x3bd90040	0.0066223443
32	0x3ce4d7cf	0.027934937
33	0x3d2e44fa	0.04254625
34	0xbc51c1c4	-0.012802545
35	0xbcccb21b	-0.024987271
36	0xbd149d45	-0.036282796
37	0xbc4b0cc1	-0.0123931775
38	0xbc6f76d3	-0.014615732
39	0xbd52594b	-0.051354688
40	0xbd7cb14b	-0.061692517
41	0xbace4bc8	-0.0015739137
42	0xbce9a211	-0.028519662
43	0xbd00ef25	-0.031478066
44	0xbd73a41a	-0.05948267
45	0x3d84f05c	0.064911574
46	0x3bf0f623	0.0073535605
47	0x3d2e5f87	0.04257157
48	0xbc01a253	-0.007912236
49	0xbd0ed4fe	-0.034871094
50	0xbc7dff85	-0.015502815
51	0xbd23bc26	-0.039974354
52	0x3d154374	0.03644128
53	0x3ca05f38	0.019576654
54	0x3c43a8ab	0.011942069
55	0xbc9e7a4f	-0.01934543
56	0x3b684c67	0.003544593
57	0xbc95a6b6	-0.01826797
58	0xbda39299	-0.07986946
59	0x3bafd044	0.0053654034
60	0xbc0c0775	-0.0085467
61	0xbd6488f1	-0.05579466
62	0x3cfd99d9	0.03095715
63	0x3cf7bdb4	0.030241825
64	0xbd7d0cf0	-0.061779916
65	0xbd0a6d5e	-0.033795707
66	0x3cfa570c	0.030559085
67	0x3d6b5786	0.057456516
68	0x3d52a1d9	0.05142388
69	0x3b9da430	0.0048108324
70	0x3cc51c28	0.024061278
71	0x3c6f4403	0.014603618
72	0x3ce9fbfe	0.028562542
73	0x3abf69b0	0.0014603641
74	0x3d8917a0	0.06693959
75	0xbd8ed94a	-0.06975038
76	0xbd50e84f	-0.051002797
77	0xbc8d8388	-0.017274633
78	0xbd0161a2	-0.03158725
79	0xbd434d57	-0.04768118
80	0x3bedcf02	0.0072573433
81	0x3ceec8b8	0.029148445
82	0x3d0d8e3f	0.034559485
83	0xbce86313	-0.028367555
84	0xbc032694	-0.008004803
85	0x3c96823c	0.018372647
86	0x3c7d4e2c	0.015460532
87	0x3b9b7985	0.004744711
88	0x3b9560dc	0.0045586657
89	0x3caa0e3a	0.020758737
90	0xbcaa47d9	-0.020786213
91	0xbc9c23a3	-0.019059962
92	0xbd13f593	-0.03612287
93	0x3c08643d	0.00832468
94	0xbb42cb93	-0.002972339
95	0x3b086c8d	0.0020816654
96	0xbcbcc364	-0.023042388
97	0xbc938602	-0.018008236
98	0x3d606861	0.054787043
99	0xbc8cacff	-0.017172335
100	0xbcf97032	-0.030449007
101	0x3d400c9c	0.046887025
102	0xb9a49b04	-0.00031396013
103	0x3c71a3d0	0.014748529
104	0xbd1a5449	-0.037678037
105	0x3d10bca3	0.035336148
106	0x3c7c2cba	0.015391523
107	0xbd009cbd	-0.031399477
108	0x3c08b27c	0.008343335
109	0x3c984a00	0.018589973
110	0x3bfd2bf9	0.007726189
111	0xbc808cd8	-0.01569216
112	0xbc8009da	-0.015629698
113	0xbd9e2de4	-0.07723597
114	0xbd380f1a	-0.044936277
115	0xbbe9b97b	-0.0071327067
116	0xbcbd4573	-0.023104405
117	0x3dc81273	0.09769144
118	0x3b82b236	0.0039885296
119	0x3d9e0678	0.077160776
120	0x3d67e931	0.056618873
121	0xbb3619d2	-0.0027786386
122	0xbd4e9827	-0.050438073
123	0x3cb343c0	0.021882892
124	0xbcb9a537	-0.022661788
125	0xbc8048fd	-0.015659804
126	0x3d0e7be6	0.034786128
127	0x3d7fc9e9	0.062448416
128	0x3da30305	0.0795956
129	0xbd2b0fb6	-0.04176303
130	0xbdc2d869	-0.09513933
131	0xbcc4e048	-0.024032727
132	0xbca12d58	-0.019674942
133	0xbd1b92d0	-0.03798181
134	0xbd753d4c	-0.05987291
135	0xbc14fd61	-0.009093613
136	0xbcc21111	-0.023689779
137	0xbc62ca6f	-0.013842209
138	0xbcdad9fe	-0.026715275
139	0xbbf21a63	-0.0073883994
140	0xbc9007c0	-0.01758182
141	0xbc2b1597	-0.010442159
142	0xbd827f0b	-0.06371888
143	0x3c6bceb6	0.014392545
144	0x3d193c0c	0.03741078
145	0xbc549a8b	-0.012976299
146	0xbc2cb964	-0.010542247
147	0x3c712fcf	0.014720871
148	0xbd12a5df	-0.03580272
149	0x3c325756	0.01088508
150	0x3c97be5e	0.018523391
151	0x3cecf4c2	0.028925303
152	0xbd0390c7	-0.032120492
153	0x3d3fb566	0.046803854
154	0xbcede050	-0.029037625
155	0x3d0f22f6	0.03494545
156	0x3d05739d	0.03258096
157	0x3d73f1ec	0.059556887
158	0xbd0b18f0	-0.03395933
159	0x3d5ee74a	0.054419793
160	0xbd6bc207	-0.057558086
161	0x3d3b4ed7	0.045729484
162	0xbbec0cb6	-0.0072036637
163	0x3c4bcf65	0.012439583
164	0xbd3a7d43	-0.045529615
165	0xbb661c58	-0.003511211
166	0x3cc93fa6	0.024566483
167	0xba8706f9	-0.0010301761
168	0x3a8ea383	0.001088247
169	0xbd2dafe5	-0.042404074
170	0xbd3793ed	-0.044818807
171	0xbcd11613	-0.025523221
172	0x3c868786	0.016422044
173	0xbd375974	-0.044763044
174	0x3d463467	0.04838982
175	0x3d68aabd	0.056803454
176	0xbd54ee0b	-0.051984828
177	0x3cba7c15	0.022764245
178	0xbb08d117	-0.002087658
179	0xbd7bd791	-0.061484877
180	0xbd54d5b7	-0.051961627
181	0xbc19c573	-0.0093854545
182	0xbd13eee0	-0.03611648
183	0x3d5b3790	0.053519785
184	0xbc0b0ce2	-0.008486958
185	0xbb1aad1e	-0.002360172
186	0xbd0ad964	-0.033898726
187	0xbcf9ac9e	-0.030477818
188	0xbca1c390	-0.019746572
189	0x3d04b128	0.032395512
190	0xbd31f45d	-0.043445934
191	0x3ce25ff3	0.027633643
192	0x3d0e2653	0.034704518
193	0x3d7dd162	0.06196726
194	0xbce93438	-0.028467283
195	0xbd4dc8a7	-0.050240185
196	0xbd26af86	-0.040694736
197	0xbd21ee5d	-0.03953396
198	0xbbf6de1e	-0.0075338027
199	0x3cef8e46	0.029242646
200	0xbd6016e6	-0.054709338
201	0x3c28a34a	0.010292837
202	0xbd45b1a6	-0.048265122
203	0x3d3d903a	0.046280123
204	0x3d52d4dc	0.05147253
205	0x3d30dac0	0.043177366
206	0x3b9029a4	0.004399495
207	0xbc143122	-0.009044917
208	0x3d5794d1	0.052632157
209	0x3d045d19	0.032315347
210	0x3d860e69	0.06545717
211	0x3d76e7c8	0.060279638
212	0x3d5adb66	0.05343189
213	0xbd2fefb7	-0.04295322
214	0xbc87113d	-0.016487712
215	0x3c019d49	0.007911035
216	0xbc80e16a	-0.015732486
217	0xbd84b3d4	-0.06479612
218	0xbcc234dd	-0.023706848
219	0xbc39cfbb	-0.011341031
220	0xbb9f873c	-0.004868416
221	0xbcfe2781	-0.031024696
222	0xbd0947df	-0.033515807
223	0xbd472847	-0.048622396
224	0xbcee1311	-0.029061826
225	0xbd2c6896	-0.04209193
226	0x3d754632	0.059881397
227	0xbcc3d2ed	-0.023904288
228	0x3cb14715	0.02164034
229	0x3d150a83	0.036386978
230	0xbd383167	-0.04496899
231	0xbc9f1138	-0.01941739
232	0x3d430536	0.04761239
233	0xbd08902c	-0.033340618
234	0x3ccb2653	0.024798548
235	0xbb59489e	-0.0033154855
236	0xbd3b19ed	-0.04567902
237	0xbcbf3e61	-0.023345174
238	0x3b8dc335	0.004326249
239	0xbc934aec	-0.017980061
240	0xbd276f16	-0.040877424
241	0xbc9e382e	-0.019313898
242	0xbcf03f58	-0.02932708
243	0xbd20dc82	-0.039272793
244	0xbd734d92	-0.05940015
245	0xbcbfba3e	-0.023404237
246	0x3be3c65a	0.0069511356
247	0xbd1bd306	-0.038043045
248	0xbca28765	-0.019839952
249	0x3c230aac	0.009951275
250	0x3bfeab72	0.0077719027
251	0xbd90d52c	-0.07071909
252	0xbcd57e2c	-0.02606114
253	0xbb65c4d0	-0.0035059936
254	0xbd064dac	-0.032788917
255	0xbd48c4ea	-0.049015917

module.features.4.bias f4 [32]
0	0x3d237dd3	0.039914917
1	0x3bf29e43	0.00740412
2	0x3d27ecd6	0.04099735
3	0xbdfd2944	-0.123613864
4	0xbc6a5446	-0.014302319
5	0x3eb91ff6	0.36157197
6	0x3dc7be54	0.09753099
7	0x3cfeedb2	0.031119201
8	0x3e210428	0.15724242
9	0x3e19d03d	0.15020843
10	0x3eaa12a3	0.33217344
11	0x3dd85948	0.10563904
12	0x3e331681	0.17489053
13	0xbc0d4ec5	-0.008624737
14	0x3d8a0b48	0.06740433
15	0x3e0b85d4	0.1362527
16	0xbcf60eab	-0.030036291
17	0x3d33f79e	0.043937318
18	0x3db22c58	0.08699864
19	0xbc0370a3	-0.00802246
20	0x3e360a5f	0.17777394
21	0x3eddbde3	0.43308935
22	0x3ddf5a10	0.1090585
23	0xbcb3bfb2	-0.021941993
24	0x3ebf74fd	0.37393942
25	0xbca51afc	-0.020154469
26	0xbd933dce	-0.07189523
27	0x3d8fc038	0.07019085
28	0xbd602633	-0.05472393
29	0xbcb7d43e	-0.022440072
30	0x3e07b004	0.13250738
31	0x3cc157ef	0.0236015

module.classifier.0.weight f4 [2, 32, 1, 1]
0	0x3ceb47c7	0.02872075
1	0xbd9792e6	-0.074010655
2	0x3decedc0	0.11568785
3	0xbdb5352a	-0.08848031
4	0xbde9f8e0	-0.11424422
5	0xbbcbeaf7	-0.0062230784
6	0xbdcba60f	-0.099437825
7	0x3dd84694	0.10560337
8	0xbcf318b5	-0.029674867
9	0x3da797ef	0.08183276
10	0x3d92c136	0.07165758
11	0x3cec49a4	0.028843708
12	0x3dff7019	0.12472553
13	0xbe0b0102	-0.13574603
14	0xbd579551	-0.052632634
15	0x3da1247e	0.078682885
16	0xbc0d49bb	-0.008623536
17	0xbd825c69	-0.06365282
18	0x3dd7415e	0.10510515
19	0xbb78fe16	-0.0037993244
20	0xbe2aeb02	-0.16691211
21	0x3e214415	0.15748627
22	0xbdb0538d	-0.08609686
23	0x3ca1b8f8	0.01974152
24	0x3d1d0fc5	0.038345117
25	0xbd9602e5	-0.07324771
26	0xbe04f73e	-0.1298494
27	0xbe4ad785	-0.19808777
28	0x3e1605fe	0.14650723
29	0x3df36e40	0.11886263
30	0xbd4b26af	-0.04959744
31	0x3d83452f	0.0640968
32	0xbe000601	-0.1250229
33	0xbdf5de30	-0.120052695
34	0xbd2aca18	-0.041696638
35	0x3d7f1596	0.062276445
36	0xbd53c9dc	-0.05170618
37	0xbdda0eba	-0.1064734
38	0x3d248f5a	0.040175773
39	0xbdd5e13e	-0.10443352
40	0x3da79a74	0.081837565
41	0xbc9eb65d	-0.019374067
42	0xbe12666a	-0.1429688
43	0x3e06a96d	0.13150568
44	0xbe383f16	-0.17992815
45	0xbdaecd75	-0.085352816
46	0x3dddaa3a	0.10823484
47	0xbd28a7fe	-0.041175835
48	0xbe0e573b	-0.13900463
49	0xbdb076f6	-0.0861644
50	0xbd70d54a	-0.05879716
51	0x3e105425	0.14094599
52	0xbd812685	-0.06306175
53	0xbd3dd701	-0.04634762
54	0x3d77e549	0.060521398
55	0xbe1ba968	-0.15201342
56	0xbd5e1b77	-0.05422541
57	0x3e129844	0.14315897
58	0x3de78955	0.11305491
59	0xbd4ffbcc	-0.05077724
60	0xbc01c1ae	-0.007919712
61	0x3d230ff8	0.03981015
62	0x3d77d000	0.0605011
63	0x3d04da58	0.03243479

module.classifier.0.bias f4 [2]
0	0x3f72395f	0.9461879
1	0xbf82ed7a	-1.0228722

module.regressioner.0.weight f4 [4, 32, 1, 1]
0	0xbbd0a9ad	-0.006367883
1	0x3ba03ecb	0.004890298
2	0x3d51d22e	0.051225834
3	0xbba30598	-0.004975032
4	0xbe08bfec	-0.13354462
5	0xba8bf521	-0.0010677913
6	0xba5a55a5	-0.0008328802
7	0x3d8357a0	0.064131975
8	0x3a4a6e73	0.00077221467
9	0xba6766da	-0.0008827277
10	0x3a43a4ea	0.0007463234
11	0xbaabbae1	-0.0013101959
12	0x3ad9fe94	0.0016631656
13	0xbd6c5394	-0.057696894
14	0x3b82c557	0.00399081
15	0x3a9823a0	0.0011607297
16	0xbb751f72	-0.0037402776
17	0xbdb6d9f7	-0.08928292
18	0x3b0d168a	0.0021528327
19	0xbd1ce929	-0.038308296
20	0x3ab6659a	0.0013915778
21	0x3b24203b	0.0025043625
22	0x396d5e9a	0.00022637323
23	0xbbffc787	-0.007805768
24	0xbafbc496	-0.0019208367
25	0x3d8fbe9f	0.0701878
26	0xbd1f1ada	-0.038843967
27	0xba0a1cb6	-0.00052685605
28	0x3cfb69c8	0.030690089
29	0x3d604546	0.054753564
30	0x3b167a6e	0.0022961157
31	0x3d8ca456	0.06867282
32	0xbb85fba0	-0.004088834
33	0xbd6e5668	-0.058187872
34	0x3ce46b59	0.027883219
35	0xbc0f481c	-0.00874522
36	0xbd735149	-0.05940369
37	0x3a3c1a7f	0.0007175579
38	0x398cd541	0.00026861767
39	0x3c4c6fb0	0.0124778
40	0x3a77b69e	0.00094495143
41	0xb9080f2d	-0.00012975624
42	0x3b1f12d4	0.0024272697
43	0xba83d8e3	-0.0010059144
44	0xbcbf7536	-0.02337132
45	0x3d298609	0.04138759
46	0x3afcbe20	0.0019282736
47	0xbaca0834	-0.0015413822
48	0xbd5140a9	-0.051087055
49	0x3d94594c	0.072435945
50	0x3a06a531	0.000513631
51	0xbd3ed141	-0.04658628
52	0x3a5d35a8	0.00084384764
53	0xbb89978d	-0.0041989745
54	0x3b108a7f	0.0022055206
55	0x3abbfc9f	0.0014342255
56	0xba67a023	-0.0008835813
57	0xbd8f7776	-0.07005207
58	0x3d1d61bf	0.038423296
59	0x3b93a81e	0.004506125
60	0x3c774d23	0.015094074
61	0x3d81b36f	0.06333052
62	0xba8563b1	-0.0010176805
63	0xbc184453	-0.0092936335
64	0x3c0fe025	0.008781468
65	0x3d6ca133	0.05777092
66	0xbd9173ca	-0.07102163
67	0x3c01eedd	0.007930485
68	0x3e3c2ee1	0.18377258
69	0x3b0f5ecf	0.0021876579
70	0xba0932c3	-0.00052336993
71	0xbdfdccf6	-0.12392609
72	0x3b21a6d1	0.002466608
73	0x3a903bdd	0.0011004169
74	0x3af70f99	0.0018849253
75	0x3a77a71a	0.00094472023
76	0xbc209161	-0.009800286
77	0xbcc5434f	-0.024079947
78	0xbb42c491	-0.0029719213
79	0x3c25d3cc	0.010121297
80	0x3df9304e	0.121674165
81	0x3dde9fee	0.10870348
82	0xbbd3be5c	-0.0064619016
83	0xbd1fa517	-0.0389758
84	0xbb5099fb	-0.003183006
85	0xb9b75786	-0.0003496969
86	0xbabf38a9	-0.001458903
87	0xbd278aeb	-0.040903967
88	0x3a9b4d3b	0.0011848578
89	0x3ca91fca	0.020645041
90	0xbc6a5f63	-0.0143049685
91	0x3a2ecf26	0.0006668441
92	0xbdaf4149	-0.08557374
93	0x3d1e8f8e	0.038711123
94	0xba2b324b	-0.00065306266
95	0x3d430f04	0.047621742
96	0xbb00bcff	-0.00196439
97	0x3ce6552e	0.028116789
98	0xbd4d7b0c	-0.050166175
99	0x3ba1f49f	0.004942491
100	0x3df71dc9	0.12066228
101	0x3b85013e	0.004058986
102	0xbae2aa9b	-0.0017293276
103	0xbd73972f	-0.05947035
104	0x3a8c3c75	0.001069917
105	0x3aec1a7e	0.0018013266
106	0x3c0b8265	0.008514975
107	0x3a5398a2	0.00080717553
108	0xbc3e2b3a	-0.011606986
109	0xbd4b632a	-0.049655117
110	0xbb2f37ee	-0.0026736218
111	0x3b52c68f	0.0032161807
112	0x3dac6920	0.084184885
113	0x3d326005	0.043548603
114	0xbb1a8c79	-0.0023582263
115	0x3c480fc4	0.01221079
116	0xbb575c01	-0.0032861235
117	0x3b411865	0.0029464003
118	0xb9267e33	-0.00015878007
119	0xbd11ed96	-0.03562697
120	0x39992527	0.00029210115
121	0x3d4b366f	0.04961246
122	0xbc49aa24	-0.012308631
123	0x3b82a8ee	0.003987423
124	0xbd366770	-0.04453224
125	0x3d0e58f2	0.034752794
126	0xba414393	-0.0007372435
127	0xbccbb6d7	-0.024867458

module.regressioner.0.bias f4 [4]
0	0x3c2064f3	0.009789693
1	0xbd819d74	-0.0632886
2	0xbd2b8c4e	-0.04188185
3	0x3dd8c32a	0.105840996

module.landmarkRegressioner.0.weight f4 [10, 32, 1, 1]
0	0x3d00a439	0.031406615
1	0xbdb116c6	-0.08646922
2	0xbd1cae6e	-0.038252287
3	0xbbcc84e4	-0.0062414277
4	0x3d5cb3bf	0.053882357
5	0x3b8f6d25	0.0043770247
6	0x3a896ad5	0.0010484109
7	0xbd4307aa	-0.04761473
8	0x3b144678	0.002262501
9	0xbae6069b	-0.0017549576
10	0x3c093ed8	0.0083767995
11	0xba2cb15a	-0.0006587707
12	0xbd2355f7	-0.039876904
13	0xbd9de7c5	-0.07710222
14	0x3b086266	0.0020810603
15	0x3d08c963	0.033395182
16	0xbdf6b910	-0.120470166
17	0x3d3d7bf5	0.046260793
18	0xbb80dc4c	-0.0039325114
19	0xbdd2a06e	-0.10284506
20	0xbb22c63c	-0.0024837395
21	0x3bc54567	0.0060202363
22	0x3b94becc	0.0045393463
23	0xbac69128	-0.0015149461
24	0xb9d013f1	-0.0003968771
25	0x3d72b678	0.059256047
26	0x3d766fb9	0.06016514
27	0x3a8ed08b	0.0010895891
28	0x3d9ba9a2	0.07600714
29	0x3c957e63	0.018248742
30	0x39becf29	0.0003639397
31	0x3d5cc15c	0.05389534
32	0xbd6b6b38	-0.0574753
33	0xbd056e84	-0.0325761
34	0xbd7cbc61	-0.06170309
35	0xbbd369f2	-0.0064518386
36	0x3d174723	0.036933076
37	0x3ba1a7e4	0.004933344
38	0x3a6e991d	0.0009101795
39	0xba2c1108	-0.0006563817
40	0x3b1c1ae9	0.002381975
41	0x39a2489f	0.00030953155
42	0x3b09c71d	0.0021023222
43	0x3950bfca	0.00019907873
44	0xbc9fdd41	-0.019514682
45	0xbd023f86	-0.031798862
46	0x3aeccad1	0.0018065815
47	0xbd35ac95	-0.04435404
48	0x3cb2545a	0.021768738
49	0xbd0923e9	-0.033481512
50	0x3cfc51ea	0.030800778
51	0xbd0043b2	-0.03131456
52	0xba9470a6	-0.0011325076
53	0x3b82cce9	0.0039917124
54	0x3b902839	0.004399326
55	0xbd343955	-0.04399999
56	0x3a2f2268	0.0006680847
57	0xbd7f43c8	-0.0623205
58	0x3ddc76a4	0.107648164
59	0x3b259749	0.0025267175
60	0x3d8a6431	0.06757391
61	0x3da223e4	0.07917002
62	0xb8cfd9d7	-9.911105e-05
63	0xbdb008ba	-0.085954145
64	0xbd09670c	-0.03354554
65	0xbdabb1df	-0.083835356
66	0xbd2d0937	-0.042245116
67	0xbbd182c3	-0.006393762
68	0xbd928348	-0.07153946
69	0x3b54d573	0.0032475858
70	0x3a86eeba	0.0010294535
71	0x3d1e66a4	0.038672104
72	0x3b1cb4f3	0.0023911565
73	0x3984279e	0.0002520652
74	0xbb734b4e	-0.0037123743
75	0x3af5153f	0.0018698348
76	0x3c7b3edb	0.01533481
77	0x3d73453d	0.059392203
78	0x3aa955ac	0.0012919209
79	0x3d618fb4	0.055068687
80	0xbd90a6e7	-0.07063084
81	0xbda07d61	-0.07836414
82	0x3d7e24fe	0.062046997
83	0x3be2242d	0.006901285
84	0xbb20af44	-0.002451853
85	0xbb9e90b9	-0.0048390296
86	0x3b6897bd	0.0035490834
87	0xbd9e6553	-0.0773417
88	0xbb87bbbb	-0.0041422523
89	0x3d25061f	0.04028904
90	0x3c7f7968	0.01559291
91	0x3b8f92f2	0.004381531
92	0x3d6637c9	0.056205545
93	0xbd23dc1a	-0.040004827
94	0xba536d64	-0.00080653117
95	0xbb9deaf1	-0.004819267
96	0x3c737ca1	0.014861257
97	0x3d8f9c31	0.07012213
98	0x3d00a43f	0.031406637
99	0xbbebcb31	-0.007195853
100	0xbd17eda3	-0.037091862
101	0x3b48619d	0.003057576
102	0x3aed8b08	0.00181231
103	0x3da8b936	0.08238451
104	0x3b6e6e9d	0.0036381849
105	0xbb2a2449	-0.002596157
106	0x3c14caa3	0.0090815155
107	0x39c5f267	0.00037755372
108	0xbcfbd8dc	-0.030743055
109	0x3cb4b68a	0.022059698
110	0x3a0c831b	0.00053601124
111	0x3c337284	0.010952596
112	0xbdbc4713	-0.09193244
113	0xbd8bda6c	-0.0682877
114	0xbc972b0a	-0.01845314
115	0x3d84df1b	0.064878665
116	0xbb04ff7a	-0.0020293877
117	0xb8ed5817	-0.00011317449
118	0x3b4918ee	0.0030685025
119	0x3d11a3b8	0.035556525
120	0xbae07c9a	-0.0017126978
121	0x3c97f07c	0.01854729
122	0xbd9469f3	-0.07246771
123	0x3b774a37	0.0037733444
124	0xbd7a6781	-0.061133865
125	0xbcb681bf	-0.022278665
126	0xbaafbba3	-0.001340736
127	0xbcfccbd0	-0.030858904
128	0x3d0e8d58	0.034802765
129	0x3d8d9e2b	0.06914934
130	0x3d85b6dd	0.06529019
131	0xbbb672cb	-0.0055678836
132	0x3d347af4	0.04406257
133	0x3b714320	0.0036813691
134	0x3a841e94	0.0010079914
135	0xbd034f8f	-0.032058295
136	0x3b51cb6a	0.0032012113
137	0xbaab4180	-0.0013065785
138	0x3bbb30f5	0.0057126232
139	0xb90298cc	-0.00012454687
140	0x3c5e1a5b	0.013556088
141	0x3dc6e36b	0.09711345
142	0xba37058d	-0.0006981723
143	0x3d0bd186	0.034135364
144	0xbd6fe12c	-0.05856435
145	0xbdf6c85a	-0.12049933
146	0x3d19930e	0.037493758
147	0xbdcf616c	-0.101260036
148	0xbab6ea3c	-0.0013955305
149	0xbb3680b9	-0.002784772
150	0x3b5f2d9d	0.0034054287
151	0xbceaa5d2	-0.028643522
152	0xba90c1f9	-0.0011044136
153	0xbd1cc886	-0.03827717
154	0x3c4da093	0.012550491
155	0x3ae51d61	0.0017480069
156	0xbdeb81b7	-0.114993505
157	0x3ab838be	0.0014054996
158	0xbaad6a09	-0.0013230453
159	0xbcfb26dc	-0.030658178
160	0xbd5c8ee1	-0.053847197
161	0x3d61c217	0.05511674
162	0xbccfd42e	-0.02536973
163	0xbb5a0764	-0.0033268565
164	0xbdc7c5a9	-0.097544976
165	0x3b3ceb3d	0.0028826736
166	0x3a905be8	0.0011013718
167	0xbddb7f8e	-0.107176885
168	0x3b718af9	0.0036856516
169	0x3b333cd4	0.0027349489
170	0x3c4804b6	0.012208154
171	0x3912f6d7	0.000140156
172	0x3c827fae	0.015930023
173	0x3d875543	0.06608059
174	0x39ad567d	0.0003306157
175	0xbce8a82b	-0.028400501
176	0x3d6ba27f	0.057528015
177	0xbb56412f	-0.003269266
178	0x3c01f0fb	0.007930989
179	0xbd0f7d91	-0.03503186
180	0xba9a6d71	-0.0011781884
181	0x391e2abe	0.00015083977
182	0x3b7c1f8e	0.0038470956
183	0x3db24124	0.08703831
184	0xbb51505f	-0.0031938774
185	0xbdaa10b2	-0.08303966
186	0xbd85483e	-0.0650792
187	0x3b886a32	0.00416305
188	0x3d6c1dd9	0.057645652
189	0x3bd6cb47	0.0065549943
190	0xba07bd42	-0.0005178043
191	0x3bb351a4	0.005472379
192	0xbb2a252d	-0.00259621
193	0xbda39233	-0.0798687
194	0x3d233709	0.039847407
195	0xbbda8cdd	-0.0066696242
196	0x3dd72505	0.10505108
197	0x3b3b0aef	0.0028540452
198	0xba1ed2f6	-0.00060586573
199	0xbda934bf	-0.08262014
200	0x3b555b65	0.0032555696
201	0x3a847f6f	0.0010108779
202	0x3c13252f	0.008981033
203	0x3a61a96c	0.00086083147
204	0x3bec160e	0.0072047776
205	0x3d8138a6	0.06309633
206	0x394e4358	0.00019670778
207	0x3d143d84	0.03619148
208	0x3d761680	0.06008005
209	0xbd2bb8c5	-0.041924257
210	0x3ccfe9ea	0.025380094
211	0xbc978ffa	-0.01850127
212	0xbb403310	-0.002932731
213	0xb958a373	-0.00020660255
214	0x3b0f8f4f	0.0021905487
215	0xbcea8bc9	-0.028631108
216	0xbb4fed26	-0.0031727045
217	0xbdcc3cb4	-0.09972516
218	0xbd21c376	-0.039493047
219	0x3b20debb	0.002454682
220	0x3d06a7da	0.03287492
221	0xbddd8477	-0.10816281
222	0xbabb0feb	-0.0014271712
223	0xbdc48c0e	-0.09597026
224	0xbdae7079	-0.08517546
225	0x3dabe64c	0.08393535
226	0x3c0f0233	0.008728552
227	0xbbb05bc2	-0.005382032
228	0x3d2ce5f1	0.042211477
229	0x3b30d306	0.0026981249
230	0x399d43e8	0.00029995968
231	0x3d91d1fc	0.071201295
232	0x3b714d80	0.0036819875
233	0x3ab10d92	0.0013508073
234	0x3ae9a24f	0.0017824861
235	0x3a32c3f3	0.000681936
236	0x3d1894d7	0.03725132
237	0xbd0e56cd	-0.03475075
238	0x3981533d	0.00024666815
239	0x3d7f8395	0.062381346
240	0xbcd2f614	-0.025752105
241	0xbb122ecc	-0.0022305725
242	0xbd09e968	-0.03366986
243	0xbdaf560e	-0.085613355
244	0xbb312a48	-0.0027033258
245	0xbacb6aec	-0.0015519536
246	0x3b069f1d	0.0020541616
247	0x3ae8a730	0.0017750021
248	0xbb83a348	-0.0040172674
249	0xbd97b76f	-0.07408034
250	0xbd688269	-0.056764994
251	0x3b72a47a	0.0037024305
252	0xbbfb1af7	-0.0076631266
253	0xbdbccbc2	-0.09218551
254	0xbb046b7b	-0.0020205665
255	0xbd78a9c6	-0.060708784

module.landmarkRegressioner.0.bias f4 [10]
0	0x3e649a2b	0.22324435
1	0x3e510e00	0.20415497
2	0x3e419999	0.18906249
3	0x3e440c1d	0.19145246
4	0x3ee36677	0.44414112
5	0x3ee5f205	0.4491121
6	0x3f281d2d	0.6566952
7	0x3f27b8bb	0.6551625
8	0x3f24951a	0.6429001
9	0x3f28384a	0.6571089

momentum_buffer f4 [10, 3, 3, 3]
0	0xbee6a84f	-0.45050284
1	0xbf01f350	-0.5076189
2	0xbf02b7a8	-0.5106149
3	0xbf2c5749	-0.67320687
4	0xbf0ba46f	-0.5454778
5	0xbf3f00d2	-0.74610627
6	0xbf0761b5	-0.52883464
7	0xbf02765b	-0.50961846
8	0xbea1a2f6	-0.31569642
9	0xbf00d63d	-0.503269
10	0xbefebdee	-0.4975428
11	0xbf0a565e	-0.54038036
12	0xbf1c81fe	-0.6113585
13	0xbef95564	-0.4869796
14	0xbf190b68	-0.5978303
15	0xbed28cb4	-0.41122973
16	0xbeadc4dc	-0.33939254
17	0xbe3f42b3	-0.18677787
18	0xbf3ca696	-0.7369169
19	0xbf3a56c8	-0.7278867
20	0xbf4802c3	-0.78129214
21	0xbf40d340	-0.7532234
22	0xbf2c3c6c	-0.67279696
23	0xbf42fae8	-0.761641
24	0xbf0e7e5a	-0.5566155
25	0xbed40c90	-0.41415834
26	0xbeb62cd5	-0.3558108
27	0xbe8070b8	-0.25085998
28	0xbe715980	-0.23569298
29	0xbe76a33a	-0.24085703
30	0xbe4dcb57	-0.20097099
31	0xbe923fb7	-0.28564236
32	0xbe86b978	-0.26313376
33	0xbe2598aa	-0.16171518
34	0xbe977345	-0.2958013
35	0xbe86014a	-0.26172858
36	0xbe715ddc	-0.23570961
37	0xbe5d39a7	-0.21604024
38	0xbe6779e2	-0.22605088
39	0xbe59d9c7	-0.21274482
40	0xbe8ea97b	-0.27863678
41	0xbe79720a	-0.24359909
42	0xbe485d9c	-0.19566959
43	0xbe8edb47	-0.2790167
44	0xbe7cf346	-0.24702176
45	0xbe14f160	-0.14545202
46	0xbe2dae43	-0.16961007
47	0xbe3de14d	-0.18542977
48	0xbe2e630b	-0.1702997
49	0xbe6ecaa6	-0.23319492
50	0xbe4a44fa	-0.19752875
51	0xbe250e9b	-0.16118853
52	0xbe8eb58d	-0.27872887
53	0xbe532e36	-0.20623097
54	0xbd9327a8	-0.07185298
55	0x3c455ba8	0.012045778
56	0x3dc02a2d	0.093830444
57	0x3d7b4af2	0.06135077
58	0xbd664faa	-0.056228317
59	0x3e16a50f	0.14711402
60	0x3e1f801e	0.15576217
61	0x3b941814	0.004519472
62	0xbc045c11	-0.008078591
63	0x3cb95970	0.022625655
64	0x3d34a6a8	0.04410425
65	0x3e226c40	0.15861607
66	0x3de4e0be	0.11175679
67	0xbd28fad4	-0.041254833
68	0x3e377e1e	0.17919204
69	0x3e571574	0.21004277
70	0x3d62fd6c	0.055417463
71	0x3d635201	0.055498127
72	0x3ddbdcb1	0.10735453
73	0x3dfdbf74	0.123900324
74	0x3e45d7f2	0.19320658
75	0x3e0da7a2	0.13833478
76	0xbd15d23e	-0.036577456
77	0x3e2b3f4a	0.16723362
78	0x3e7812b4	0.24225885
79	0x3e061a53	0.1309598
80	0x3df64b26	0.12026052
81	0xbd90ca5e	-0.070698485
82	0xbe21a17c	-0.15784258
83	0xbe5af5f5	-0.21382888
84	0x3d6608ca	0.056160726
85	0xbe00210b	-0.12512605
86	0x3d995558	0.07486981
87	0x3e67b127	0.22626172
88	0x3e6a930c	0.22907656
89	0x3e1b277a	0.15151778
90	0xbd77b473	-0.060474824
91	0xbe18ac22	-0.14909413
92	0xbe4c0184	-0.19922453
93	0x3db5d4d5	0.08878485
94	0xbe348b52	-0.17631271
95	0x3d373a38	0.044733256
96	0x3e31315f	0.1730399
97	0x3e9845ab	0.29740652
98	0x3e0a3080	0.13495064
99	0xbd52b679	-0.05144355
100	0xbe688925	-0.22708566
101	0xbe91551e	-0.28385252
102	0x3e101c34	0.14073259
103	0xbe006802	-0.12539676
104	0x3d45dca0	0.048306108
105	0x3ec2bb7f	0.38033673
106	0x3ee834ee	0.45352882
107	0x3e910bb4	0.2832924
108	0x3e7f941c	0.24958843
109	0x3e7035d2	0.23458031
110	0x3e2354f6	0.15950379
111	0x3ea9a46f	0.33133265
112	0x3e9efbc2	0.3105145
113	0x3e586a7c	0.2113437
114	0x3e70c8e2	0.2351413
115	0x3ecd7628	0.4012921
116	0x3eb0e26a	0.3454774
117	0x3ebef294	0.37294447
118	0x3e9c5210	0.3053136
119	0x3e333f08	0.17504513
120	0x3f0129e3	0.5045454
121	0x3ed4d5ea	0.41569453
122	0x3e8eb4d3	0.27872333
123	0x3ee6574b	0.44988474
124	0x3f12ff25	0.5742057
125	0x3eedfec4	0.46483433
126	0x3ee04064	0.43799126
127	0x3eac53bd	0.33657637
128	0x3e6ad3ae	0.22932312
129	0x3f17d3b7	0.59307426
130	0x3eef1007	0.46691915
131	0x3ea76d38	0.32700515
132	0x3f18b8d9	0.59657055
133	0x3f311177	0.69167274
134	0x3f0a2ba6	0.5397285
135	0xbe655374	-0.22395116
136	0xbe813975	-0.2523915
137	0xbe6c1846	-0.23056135
138	0xbe77b205	-0.24189003
139	0xbe94683c	-0.28985775
140	0xbe334fb3	-0.17510872
141	0xbeb62e9f	-0.35582444
142	0xbe8a8483	-0.27054223
143	0xbea8f6b6	-0.33000726
144	0xbdfb3c06	-0.12267308
145	0xbe044b8c	-0.12919444
146	0xbd91b5a1	-0.07114721
147	0xbe1b2b7b	-0.15153305
148	0xbe5afb7c	-0.21384996
149	0xbd4ba7d4	-0.0497206
150	0xbe8a420b	-0.27003512
151	0xbe5bd19e	-0.21466681
152	0xbe63af4f	-0.22234844
153	0x3d2d5afb	0.042323094
154	0x3e0195af	0.12654756
155	0x3e5e5274	0.21711141
156	0xbb07a5a0	-0.0020698085
157	0x3cec0076	0.028808814
158	0x3e3fa92a	0.18716875
159	0xbe298a0e	-0.1655657
160	0xbcf8f6e6	-0.030391168
161	0x3b7745f0	0.0037730895
162	0x3d88e035	0.06683389
163	0x3e8f5977	0.27997944
164	0x3e9ec510	0.31009722
165	0x3e095af9	0.1341361
166	0x3e5f094d	0.21780892
167	0x3e958586	0.29203433
168	0x3ea02f24	0.31285965
169	0x3e793199	0.24335326
170	0x3e8b950e	0.27262157
171	0x3d96221e	0.07330726
172	0x3e8f5ebe	0.2800197
173	0x3e950c4d	0.29110947
174	0x3e17f5b0	0.14839816
175	0x3e53ec88	0.20695698
176	0x3e81409c	0.25244606
177	0x3eb12df6	0.34605378
178	0x3e9408a2	0.28912836
179	0x3e8c676d	0.27422658
180	0x3c98a4c0	0.018633246
181	0x3e87977f	0.2648277
182	0x3ea36430	0.31912374
183	0x3e1196fb	0.1421775
184	0x3e546c1a	0.20744362
185	0x3e8679b4	0.26264727
186	0x3ea4b17b	0.32166657
187	0x3e9072be	0.2821254
188	0x3e8e388d	0.2777752
189	0xbe5c9b02	-0.21543506
190	0xbe696218	-0.22791326
191	0xbdfc1722	-0.123091
192	0xbe19eda0	-0.15032053
193	0xbe509d04	-0.20372397
194	0xbd7a4c69	-0.061108027
195	0xbe05a04e	-0.13049433
196	0xbe3b38ea	-0.1828343
197	0xbe6f39d8	-0.2336191
198	0xbe3d7354	-0.18501025
199	0xbe40ebba	-0.18839923
200	0xbdb09ad0	-0.08623278
201	0xbe1fe616	-0.15615115
202	0xbe4c83fa	-0.1997222
203	0xbd66915e	-0.056290977
204	0xbdfdde23	-0.12395885
205	0xbe4830c9	-0.1954986
206	0xbe5b1af2	-0.21396998
207	0xbdbe89c3	-0.0930362
208	0xbd74e2ba	-0.059786536
209	0x3e02f889	0.12790121
210	0xbddd4a82	-0.10805227
211	0xbd993564	-0.074808866
212	0x3e0c7624	0.13716942
213	0xbd8f8ebd	-0.07009647
214	0xbdc3cd54	-0.095606476
215	0xbd8960c4	-0.0670791
216	0xbdd2cac5	-0.102925815
217	0xbd3adc8e	-0.045620494
218	0xbe490656	-0.19631323
219	0x3d2d110c	0.042252585
220	0xbdad9532	-0.084757224
221	0xbc376170	-0.0111926645
222	0x3e9bca6b	0.3042787
223	0x3e816d1c	0.25278556
224	0x3eab99da	0.33515817
225	0xbe078193	-0.13233022
226	0xbda4a300	-0.08038902
227	0xbe598ffa	-0.21246329
228	0x3a011100	0.00049234927
229	0xbe16d70a	-0.14730468
230	0xbcd03d30	-0.025419801
231	0x3e969c8c	0.2941631
232	0x3e65470e	0.22390386
233	0x3e8bfd98	0.27341914
234	0xbdb9cd83	-0.090724014
235	0xbd9ac990	-0.07557976
236	0xbe769f34	-0.24084169
237	0x3e1afe93	0.15136175
238	0xbda87e9b	-0.08227273
239	0xbd2d63e0	-0.042331576
240	0x3eea57c3	0.45770082
241	0x3ea1e2e2	0.3161841
242	0x3e92edd1	0.28697065
243	0x3f00e799	0.5035339
244	0x3ee4d960	0.44697094
245	0x3eeb2374	0.45925486
246	0x3f271b3d	0.6527594
247	0x3f11938a	0.5686575
248	0x3ef553a5	0.47915378
249	0x3effc673	0.49956092
250	0x3f0383ad	0.51372796
251	0x3ee32ee4	0.44371712
252	0x3ebb01f7	0.36524937
253	0x3e925006	0.28576678
254	0x3ea7247f	0.32645032
255	0x3f0d0199	0.5508056

momentum_buffer f4 [10]
0	0xbb8c8572	-0.004288369
1	0xba848d8e	-0.0010112987
2	0xbabba941	-0.0014317409
3	0xbbb11872	-0.0054045254
4	0xbb7eeb8d	-0.0038897723
5	0x3b35c036	0.0027732975
6	0x3a253c08	0.0006303196
7	0x3ae6b529	0.0017601597
8	0xbb0187e5	-0.0019764837
9	0xbb5bc0ba	-0.0033531622

momentum_buffer f4 [16, 10, 3, 3]
0	0xbd190930	-0.037362278
1	0x3b56d0f6	0.003277836
2	0xbcd4a539	-0.02595769
3	0xbd0d346e	-0.03447383
4	0x3c969e7c	0.018386118
5	0xbc96c179	-0.018402802
6	0xbcbe739e	-0.02324849
7	0x3b450f5d	0.0030068972
8	0xbc58254a	-0.013192484
9	0xbd203365	-0.039111514
10	0xbd2ef69c	-0.042715654
11	0xbb6a5854	-0.0035758214
12	0xbdd51a58	-0.10405415
13	0xbd8a19cc	-0.067432016
14	0xbd449488	-0.047993213
15	0xbcff190a	-0.03113987
16	0xbd0e63ad	-0.034763027
17	0xbd64b876	-0.05583998
18	0xbe2317f1	-0.15927102
19	0xbe255022	-0.1614385
20	0xbe155afe	-0.14585492
21	0xbe1b752e	-0.15181419
22	0xbe13041a	-0.14357033
23	0xbe30c488	-0.1726247
24	0xbdc8d3b9	-0.09806008
25	0xbe198645	-0.14992626
26	0xbe367693	-0.1781867
27	0xbe8d0663	-0.27543935
28	0xbe3bb456	-0.18330511
29	0xbdc695e6	-0.096965596
30	0xbeac1944	-0.33613026
31	0xbe8bdc37	-0.27316448
32	0xbdf58b02	-0.11989404
33	0xbedf0d53	-0.43564853
34	0xbecc7657	-0.39934036
35	0xbe3dba28	-0.18528044
36	0xbd39ee19	-0.045393083
37	0xbd7fcd09	-0.062451396
38	0xbd69cb5a	-0.057078697
39	0xbc301ce5	-0.0107490765
40	0xbcfb1abb	-0.030652395
41	0x3c52d8c6	0.012869066
42	0xbd87c5c0	-0.06629515
43	0xbbc60f0c	-0.006044274
44	0x3c6b62f4	0.014366854
45	0x3d02f6e4	0.031973734
46	0x3cc3b2fa	0.023889054
47	0xbc0a8bc2	-0.008456172
48	0xbc51bd12	-0.0128014255
49	0xbc1d412e	-0.00959806
50	0x3cdbaff8	0.026817307
51	0xbd379205	-0.04481699
52	0xbccf9892	-0.025341306
53	0xbcc895b3	-0.024485445
54	0x3cb424be	0.021990176
55	0xbde957ac	-0.11393675
56	0xbdd6263e	-0.10456513
57	0xbd76dbee	-0.060268335
58	0xbd4aad2e	-0.049481563
59	0xbdd32a81	-0.10310841
60	0x3d18e596	0.037328325
61	0xbd16b1ae	-0.036790542
62	0xbd7f6ec5	-0.062361497
63	0xbda7c1f4	-0.081912905
64	0xbda57213	-0.080783986
65	0xbde13b0e	-0.10997592
66	0xbde8ede0	-0.11373496
67	0xbda68ae8	-0.08131963
68	0xbdeb701b	-0.11495992
69	0xbdfcf1c8	-0.123508036
70	0xbd892627	-0.0669673
71	0xbdb87fc0	-0.090087414
72	0x3d8aaef0	0.06771648
73	0x3c90c480	0.017671824
74	0xbda58e36	-0.08083765
75	0xbceb927b	-0.02875637
76	0xbe026cd6	-0.1273683
77	0xbd8617a9	-0.065474816
78	0xbc7311a3	-0.014835748
79	0x3c1a7a1e	0.009428529
80	0xbbd72538	-0.006565716
81	0xb9c22940	-0.00037033297
82	0xbd39ce0a	-0.04536251
83	0xbdc61de9	-0.09673674
84	0xbdc402d0	-0.09570849
85	0xbdd4c725	-0.10389546
86	0xbdd10e38	-0.1020779
87	0xbd4d6b82	-0.050151356
88	0xbbd4381c	-0.0064764153
89	0xbcd51045	-0.026008734
90	0x3d29b5e5	0.041433234
91	0x3d6cd450	0.057819664
92	0x3d7fdf02	0.062468536
93	0x3deb039b	0.11475297
94	0x3d813d76	0.06310551
95	0x3d6982c8	0.05700949
96	0x3dd05af8	0.10173601
97	0x3d6f9df4	0.058500245
98	0x3d2a7756	0.041617714
99	0x3e1500a6	0.14551029
100	0x3dd8981a	0.10575886
101	0x3de55e42	0.11199619
102	0x3d9885f5	0.07447425
103	0x3dcf915d	0.10135148
104	0x3da785da	0.08179827
105	0x3dccd6e1	0.100019224
106	0x3df41214	0.11917511
107	0x3e072572	0.13197878
108	0x3de9d3ee	0.114173755
109	0x3e02efe4	0.12786824
110	0x3e369bd2	0.17832878
111	0x3dc37702	0.09544183
112	0x3dd84e9c	0.105618685
113	0x3de6f1f0	0.11276615
114	0x3dd15ff3	0.10223379
115	0x3dc23bb8	0.09484047
116	0x3d85b765	0.0652912
117	0x3d511ee8	0.051054865
118	0xbcade4ac	-0.021227203
119	0xbdabad28	-0.08382636
120	0x3dc079f0	0.09398258
121	0x3d3ba9db	0.045816284
122	0xbcb62720	-0.022235453
123	0x3df88e6c	0.1213654
124	0x3dba096e	0.0908383
125	0x3d6d0ddb	0.05787454
126	0x3ec648ff	0.38727567
127	0x3eb92946	0.36164302
128	0x3e7abe20	0.2448659
129	0x3debe9f8	0.115192354
130	0x3e1d79a6	0.15378436
131	0x3e5a90cf	0.21344303
132	0x3e14c216	0.14527163
133	0x3df7ee30	0.121059775
134	0x3e287918	0.16452444
135	0x3e2d6414	0.16932708
136	0xbaf7a604	-0.0018894081
137	0x3d0fd8ea	0.035118975
138	0x3e3165ef	0.17324041
139	0x3d67000b	0.056396525
140	0x3dd04f83	0.10171416
141	0x3e51bd3a	0.2048234
142	0x3cb65eae	0.022261944
143	0x3e349b70	0.1763742
144	0x3de5a82a	0.112137154
145	0x3da23ca9	0.07921726
146	0x3dd46b38	0.10372013
147	0x3e060774	0.1308878
148	0x3e151a57	0.14560829
149	0x3e16e720	0.14736605
150	0x3d4b10b6	0.049576484
151	0x3db11128	0.086458504
152	0x3e1e04bf	0.15431498
153	0x3c566d56	0.013087591
154	0xbcdc67b8	-0.026904926
155	0xbc7e7780	-0.015531421
156	0x3d426079	0.047455285
157	0x3d3d6cdc	0.046246395
158	0x3bd80d68	0.006593395
159	0x3d570a14	0.052499846
160	0x3cf57096	0.029960912
161	0x3cb5ef38	0.022208795
162	0x3ec5c5fd	0.38627616
163	0x3eb90ea8	0.36143994
164	0x3e48391c	0.19553035
165	0x3e50a5e2	0.2037578
166	0x3e055120	0.13019228
167	0x3e025880	0.12729073
168	0x3db8c19e	0.090213045
169	0x3e140e16	0.14458498
170	0x3e6f5432	0.23371962
171	0x3eae385e	0.3402738
172	0x3e94562c	0.28971994
173	0x3e3d90ce	0.1851227
174	0x3e34fff1	0.17675759
175	0x3e1c92c8	0.15290368
176	0x3e56055a	0.20900479
177	0x3e02ff66	0.1279274
178	0x3de1f1a6	0.11032419
179	0x3e303130	0.17206264
180	0x3d784ca9	0.060619984
181	0x3de54f82	0.111968055
182	0x3da04e03	0.078273796
183	0x3d756cc8	0.059918195
184	0x3da51d94	0.08062282
185	0x3e154664	0.14577633
186	0xb916f600	-0.00014396757
187	0x3ce1748e	0.027521398
188	0x3d73cd74	0.059522107
189	0x3bec24c0	0.0072065294
190	0xbbdc2188	-0.0067178644
191	0x3d967cce	0.07348023
192	0x3d4d5d8a	0.050138034
193	0x3dd4984f	0.10380613
194	0x3dc42de6	0.09579067
195	0x3d9981a3	0.07495429
196	0x3db5ed39	0.08883137
197	0x3e192353	0.14954881
198	0x3db97cbd	0.09056995
199	0x3d4e5fda	0.05038438
200	0x3e04a3b8	0.12953079
201	0x3d79e226	0.061006688
202	0x3df6bf09	0.12048156
203	0x3e182818	0.14859045
204	0x3dbf7724	0.09348896
205	0x3d0d0a0f	0.03443342
206	0xbd2c995a	-0.042138435
207	0x3d03e12e	0.03219717
208	0x3e139b32	0.14414671
209	0x3d834cc9	0.0641113
210	0x3efcf492	0.49405342
211	0x3f01f8d8	0.5077033
212	0x3ec61366	0.38686675
213	0x3f468bff	0.7755737
214	0x3f463cba	0.7743641
215	0x3f1c25f8	0.60995436
216	0x3dac4af9	0.084127374
217	0x3ef6e1e1	0.48219207
218	0x3ee5f5ed	0.4491419
219	0xbd8cd867	-0.06877213
220	0x3cd76524	0.026293345
221	0x3c1cc44c	0.009568285
222	0x388cd000	6.714463e-05
223	0xbe57e5d2	-0.21083763
224	0xbe652ce2	-0.22380403
225	0xbe2c64f0	-0.1683538
226	0xbc9f0b68	-0.019414619
227	0x3cdea2de	0.02717727
228	0xbe2d1d5d	-0.16905732
229	0xbc91e424	-0.017808981
230	0x3e1792c8	0.14802086
231	0x3e76d863	0.24105982
232	0x3e28083b	0.1640939
233	0x3e1b0f50	0.1514256
234	0x3b9a97b6	0.0047177924
235	0xbbd9aece	-0.006643153
236	0x3dd257fa	0.102706864
237	0x3cbc9722	0.023021284
238	0x3e4e55dd	0.20149942
239	0x3ea43b1f	0.32076356
240	0x3d7fda18	0.06246385
241	0x3e528ca0	0.20561457
242	0x3ea22da8	0.31675458
243	0x3d4e0370	0.050296247
244	0x3d1ef782	0.03881026
245	0x3d971527	0.07377081
246	0x3e0d2068	0.13781893
247	0xbb901180	-0.0043966174
248	0x3da0459c	0.07825777
249	0x3e4db0cb	0.20086972
250	0x3deeedbe	0.116664395
251	0x3df02017	0.11724871
252	0xbe4376bb	-0.19088261
253	0x3e38f2ba	0.18061343
254	0x3e7b39dc	0.2453379
255	0x3e366d43	0.17815118

momentum_buffer f4 [16]
0	0xbb9e361a	-0.0048282268
1	0x3b28b36c	0.002574171
2	0x3ba09280	0.0049002767
3	0xbbbad0b3	-0.0057011484
4	0xbaa832a4	-0.0012832475
5	0xbb5b8e3d	-0.0033501529
6	0xbc492b99	-0.012278461
7	0x3ad812ef	0.0016485135
8	0x3b7be614	0.0038436698
9	0xbbb743e6	-0.005592811
10	0x3b9e093b	0.0048228777
11	0x3b306e75	0.0026921306
12	0xbac0e5fa	-0.0014716976
13	0xbbd6cd30	-0.006555222
14	0x3a832e3f	0.0010008289
15	0xbbbdb22c	-0.005789062
