scripts/models/rnet_20200917_final.pkl (torch_old, 816061 bytes, 28 tensors)

module.extractor.0.weight f4 [28, 3, 3, 3]
000000 0d e9 24 3d fd 41 de 3c f9 44 25 bb 33 16 d7 bb
       0.040261317 0.027131075 -0.0025218113 -0.0065639256
000010 98 84 29 3e b0 69 27 3e d4 92 47 3c 07 8c 1e be
       0.16554487 0.1634891 0.012181003 -0.15483104
000020 8a 8c 71 be b4 df 02 3e 5e 86 1d 3e 08 52 c7 3d
       -0.23588768 0.12780648 0.15383288 0.09732443
000030 c7 5c 6c 3e 69 cc 7e 3d 2f 53 ff 3d 3e 87 3d be
       0.23082267 0.06220666 0.12467038 -0.18508622
000040 1a d5 95 be d1 55 81 be b0 31 35 bd ad 36 bd bd
       -0.29264146 -0.25260785 -0.04423684 -0.09238944
000050 4d 7c c8 ba 85 45 2f 3e 1d d7 1a 3e 2f dc 23 3e
       -0.0015295834 0.17116363 0.15121122 0.16001962
000060 37 9f cc bd 3e 28 3d be e6 be 08 be 7e 53 85 bd
       -0.09991305 -0.18472382 -0.13354072 -0.065100655
000070 13 2d 86 bd 54 31 11 3d 77 c0 8d bd 5c 3a d2 bc
       -0.06551566 0.035447434 -0.069214754 -0.025662594
000080 78 e6 b6 3c 29 2b 82 bc a3 c1 4e 3d 3d 21 91 3e
       0.022326693 -0.015889721 0.050477635 0.2834567
000090 62 5b b1 bd 59 f0 4f be 8a 69 a3 bd 84 51 1c be
       -0.08660008 -0.20306529 -0.07979114 -0.1526547
0000a0 17 5f 82 bd c3 bc 98 bd 26 24 98 bd fe 7e 1d 3e
       -0.06365793 -0.074578784 -0.0742877 0.15380475
0000b0 53 11 5b 3e 47 f5 13 3e 83 2e ee 3d 5e 8b 15 3d
       0.21393327 0.14449035 0.11629965 0.036509864
0000c0 6e a7 12 3e 90 f1 5f bd 36 22 42 bd 15 a7 f7 bc
       0.14321682 -0.05467373 -0.047395907 -0.030231038
0000d0 3e 8b e9 bd af e4 11 be 19 3e 07 3d 38 ac 2f 3e
       -0.114035115 -0.14247392 0.033018205 0.1715554
0000e0 0c 40 e0 3d e8 82 de bd d1 10 6c bd 96 42 24 bd
       0.10949716 -0.10864812 -0.057633225 -0.040102564
0000f0 0a 9c 83 bc 89 b9 0f bd 42 be 6e 3c 6c d8 88 3d
       -0.016065616 -0.03508905 0.014571728 0.06681904
000100 9f 1a 2d 3d 97 71 0e 3e ec 30 25 be 4e 06 9d bc
       0.042261716 0.13910519 -0.16131943 -0.019168045
000110 b5 c5 66 3c 3b 61 be bd 09 91 47 be ce 97 2d 3c
       0.014085223 -0.09295889 -0.1948892 0.010595275
000120 2f d7 63 3e 58 ec 58 3e ac cb 89 3e 39 aa 0b bd
       0.22250055 0.21183908 0.26913202 -0.034097884
000130 55 d1 a4 bb 7d 97 f0 3d 35 5d 5f be 13 af 79 be
       -0.005029837 0.11747644 -0.218129 -0.24383192
000140 e0 ac 5f be 04 5a 50 3c 00 19 17 3e bd d3 4c 3e
       -0.2184329 0.012716774 0.1475563 0.20002647
000150 71 c9 6a bd 55 c4 c2 bd f5 0b 40 3e d5 6c e3 bd
       -0.057321016 -0.095101036 0.18754561 -0.111047424
000160 a5 48 76 be e0 f1 20 3d 53 d0 0b 3b 13 6f 5b 3d
       -0.24051149 0.03929317 0.0021333888 0.053572726
000170 97 4c e6 3d 88 3d d9 bd 08 4a f3 bb 4f c7 9e 3e
       0.11245077 -0.10607439 -0.0074245967 0.31011435
000180 a7 7b 86 3c 45 53 03 be a1 f9 2d 3e 9d 96 6e 3c
       0.016416384 -0.12824734 0.16989757 0.014562276
000190 f8 ae 0e 3e db d4 51 bd f9 d6 0c be af 2c 2a be
       0.13933933 -0.051228385 -0.1375388 -0.16618608
0001a0 af e8 46 3e 37 44 1e bc 37 ee 76 be 52 0e 15 be
       0.19424699 -0.009659818 -0.24114309 -0.14556244
0001b0 3f 22 b2 3d ff 4c 3e 3e c8 ce 4e bd d2 08 35 3e
       0.08697938 0.18584059 -0.05049017 0.17679146
0001c0 79 51 bc bd f1 37 1a be 54 a1 4d bd c8 de a9 bd
       -0.09195227 -0.15060402 -0.050202683 -0.08294445
0001d0 14 1e 5f bc 98 f9 64 3e fa 3b 0d 3e 6d 6d 7c 3a
       -0.013618011 0.22360837 0.1379241 0.0009629343
0001e0 3b 0e be 3d 20 49 95 bd 89 05 85 be 51 e4 45 3d
       0.09280058 -0.07289338 -0.25980785 0.048313443
0001f0 94 f1 0b be 37 94 3e bd 4c 14 86 3e 02 6d cb 3d
       -0.13666373 -0.046528067 0.2618736 0.09932901
000200 de ff b6 bd 83 a9 88 3e 10 d5 00 be 66 0b 12 be
       -0.089355215 0.26691827 -0.12581277 -0.1426216
000210 b4 a2 95 bc 4c 01 3c be d0 fe 90 bd d7 3a 23 bd
       -0.01826606 -0.1835987 -0.070798516 -0.039851036
000220 89 df c1 bd 83 96 85 3d 82 92 3c 3e 54 a9 5e be
       -0.09466464 0.065228485 0.18415263 -0.21744281
000230 14 eb 29 bd b3 43 c1 3e 77 0e c3 bd 0f 01 09 bc
       -0.041483954 0.37746963 -0.09524243 -0.008362069
000240 dc 3f ce bd e1 3c a5 bd 6e cf d3 bc 98 7a ba 3d
       -0.10070774 -0.08068252 -0.025855746 0.09105414
000250 01 64 82 be 33 7f 5f 3d 1b 24 c6 3e c6 66 19 be
       -0.25466922 0.054564666 0.3869942 -0.14980611
000260 8c a6 4f bd 34 5b 0a 3d 51 71 9c 3c 3f bb c6 3e
       -0.05069594 0.033778384 0.019097002 0.38814732
000270 68 58 1e be df 6a a7 be a4 83 42 3e 93 ee b5 3c
       -0.15463412 -0.32698724 0.1899553 0.022208488
000280 68 be 82 be 9a 20 ec 3d 45 81 8b 3e 18 24 06 be
       -0.25535893 0.11529656 0.27247062 -0.13099706
000290 f4 0b f6 bd 76 e9 22 3e dc bd 9a 3d cf b5 55 be
       -0.12013999 0.15909371 0.07555744 -0.20870136
0002a0 09 83 63 3e ed 7a c6 3d 03 02 28 be 22 55 59 3e
       0.22217955 0.09691415 -0.16407017 0.21223882
0002b0 7d e1 99 3c 59 c8 5b be da a8 1b 3e c4 be 07 3e
       0.018784279 -0.21463145 0.1520113 0.13256365
0002c0 8d 5e 0d be b2 c6 41 3d f7 8e 8b bd d1 52 5e 3d
       -0.138056 0.04730863 -0.06814378 0.0542782
0002d0 3a b1 4b 3d 2a db 60 be 1d 9d f3 bd 50 bc 04 bd
       0.049729563 -0.21958604 -0.11895201 -0.03240615
0002e0 a4 8a 9f bd 5e fb a2 3d 46 e9 3a be e9 ba cb 3d
       -0.077901155 0.07958101 -0.18253049 0.0994776
0002f0 46 99 c5 bd 99 4c 12 bd 94 90 bb bb 83 1c 60 bc
       -0.09648375 -0.03571758 -0.005724022 -0.013678673
000300 13 67 56 bd b0 a0 45 3c d7 3b 10 bd 38 60 fe 3d
       -0.052344393 0.012062237 -0.035213318 0.12420696
000310 40 06 f1 3d c8 c9 88 bd 42 d9 a6 bd bb c1 9a bc
       0.1176877 -0.06679112 -0.081469074 -0.018891206
000320 3e 25 9b bd fe 88 ea bd 7a 3c 3b bd 53 78 d6 3d
       -0.07575463 -0.114519104 -0.04571197 0.10472169
000330 ee 0f 9f bd 34 da 0a 3e ad 5f 0c 3d f2 26 a8 be
       -0.0776671 0.135598 0.03427093 -0.32842213
000340 9a f3 8b be fb 53 9d bc c4 80 31 be 1d 48 04 3d
       -0.2733429 -0.019205084 -0.17334276 0.032295335
000350 74 d0 12 3e df 38 65 3e 9c 3f 65 3e e7 87 88 3e
       0.14337331 0.22384976 0.22387546 0.26666185
000360 84 6d df 3d 61 9d 07 be 0d 55 55 be 6a 24 ab bc
       0.1090956 -0.13243629 -0.20833226 -0.020891387
000370 d2 e9 56 3d ae c8 2c 3d a9 b7 29 3d fb 99 b4 3d
       0.052469082 0.04218357 0.041434918 0.08818432
000380 2f 55 1a 3e c8 13 6b bd 62 b4 4f bd c1 70 8a be
       0.15071557 -0.05739191 -0.050709136 -0.2703915
000390 35 60 bd 3c 8e 3a 3b 3e 88 2c 85 bd 18 f5 97 bd
       0.023117164 0.18284056 -0.06502634 -0.07419795
0003a0 90 fd 37 bc dc b6 44 3c 26 14 9b 3e 93 ab ca 3d
       -0.011229888 0.012006488 0.3028881 0.098960064
0003b0 ac 1c 7a be a1 c4 61 3e ef c0 c1 3d 6d 68 b0 bd
       -0.24425 0.22047664 0.09460627 -0.08613668
0003c0 87 bd 98 bd 74 60 b1 bd 2f cd 2c bd 51 c9 26 3b
       -0.074580245 -0.08660975 -0.042187866 0.0025449584
0003d0 c3 db 50 3d 3d a5 56 3e 29 1c 39 3e da cd 05 3e
       0.05099083 0.20961471 0.18077148 0.13066807
0003e0 fd fb f3 bb 17 8a e7 3c b3 c1 86 3d 37 cb cb 3d
       -0.007445811 0.028264089 0.06579914 0.099508695
0003f0 d6 b3 d7 bd 56 58 e1 bd 87 39 33 3e 26 90 cf bc
       -0.10532348 -0.11003177 0.17502414 -0.02533729

module.extractor.0.bias f4 [28]
000000 de 6a 3f 3d 19 83 bf bd 15 e5 f1 3d a8 56 87 3d
       0.046732776 -0.09351177 0.11811272 0.06608325
000010 fa 8a d5 3d 11 64 95 bd d5 58 bb 3b 0e 7a 72 bd
       0.10426898 -0.07294477 0.0057173767 -0.05919843
000020 84 b2 8d 3d b9 f9 bb 3d 2b dc 12 3e ec b7 c8 bd
       0.06918815 0.0917849 0.143418 -0.09800705
000030 1d 3a 5b bd 60 d4 60 3b e5 d4 b3 3a 0e f2 0a 3e
       -0.053522218 0.0034306273 0.0013720064 0.13568899
000040 70 b6 42 3d 01 d2 bd 3d bb fe 05 3e 4b ab 0b 3d
       0.047537267 0.09268571 0.13085453 0.034098905
000050 18 5f ed bc 46 02 d7 3d 99 92 f4 bd 1b 11 fb 3c
       -0.028976008 0.104984805 -0.11942024 0.030647805
000060 51 62 a2 3d b5 89 c2 3d 92 59 a4 3d 40 10 ec 3d
       0.079289086 0.09498922 0.08024897 0.11526537

module.extractor.3.weight f4 [48, 28, 3, 3]
000000 be bf a0 bb 3a bf 9d bc 14 43 0a 3c 43 28 64 bc
       -0.00490567 -0.019256223 0.008438844 -0.013925615
000010 9a e7 94 bc 4a a4 32 bd df e3 33 bd 89 fa de bb
       -0.018176842 -0.04361371 -0.043918487 -0.0068047685
000020 e3 c4 52 bd 78 90 bd 3d 9c 84 7b 3d 53 32 9b 3d
       -0.051457297 0.09256071 0.061405763 0.07577958
000030 5c 71 90 3c d3 2e 4e 3c cf c9 53 3d 4b ea 94 bd
       0.017632179 0.012584406 0.05170613 -0.0727125
000040 1f e4 83 bd 04 e4 5d bc 5e de 70 3d f6 e9 4a 3d
       -0.06439995 -0.013543133 0.058805816 0.04953953
000050 5c 33 b6 3d 27 13 b2 bd 29 b1 97 bd 33 dd eb bb
       0.08896515 -0.08695059 -0.074068375 -0.007198
000060 c8 05 30 be 1f 04 55 bd 80 f6 15 bd 9b 9e b9 bc
       -0.17189705 -0.052005883 -0.036612034 -0.022658637
000070 42 d8 8a bd cb 7d b9 bd ae d7 0a 3d 5d 24 97 3c
       -0.06779529 -0.09057196 0.033897094 0.018449957
000080 ed 12 21 bd 1a 3e 38 3d 3c 37 04 3d d3 3e 65 bc
       -0.03932469 0.0449811 0.032279238 -0.013992029
000090 b0 af 2f bd 72 4d 56 3a 53 38 e9 bc 9e 09 18 3d
       -0.042892158 0.00081749924 -0.02846924 0.037118547
0000a0 ef 4f a3 bb 7b a6 db bc 3f 14 5c bc 09 d7 e3 bc
       -0.004983894 -0.026812783 -0.013432561 -0.027812498
0000b0 7c 53 8a bc 27 89 1e bd 14 c9 28 3d 3c 8f 16 3c
       -0.016885512 -0.038705017 0.041207388 0.009189423
0000c0 cd 0b fd bc e6 ce e1 3c dc 84 a3 3d 78 e9 57 bd
       -0.030889416 0.027564477 0.07984325 -0.052712888
0000d0 b8 5e bd 3b 30 fc 5e 3d 32 45 62 bc 37 03 c6 bc
       0.0057791136 0.054439723 -0.013810443 -0.024171455
0000e0 a4 81 1e 3c 52 dd b7 bc 43 b4 50 3d 48 ba 98 3d
       0.009674463 -0.022444401 0.05095316 0.07457405
0000f0 3a b6 c4 3c 24 9b 86 3d 1d 2e 45 3d 2d 0a 2e 3c
       0.024012674 0.065725595 0.04813968 0.010622543
000100 a8 a8 2a 3d 75 4d 03 3c 12 3e 05 bd 46 e9 71 bc
       0.04166475 0.008014073 -0.032529898 -0.014765089
000110 91 af 89 bc e6 8c 40 bd 2b 3f b2 3c c2 07 f9 bc
       -0.01680735 -0.04700937 0.021758636 -0.030399207
000120 1d fa a1 3c c8 9b 81 3d 99 27 e9 3d fc 7e ce bc
       0.019772584 0.06328541 0.11384506 -0.025207035
000130 c4 29 7c bb 74 6d 2d 3d 5b d3 24 bd a9 5e cb bc
       -0.0038477043 0.04234071 -0.040240627 -0.02482541
000140 d8 ce 53 bd 57 66 52 bd 43 b6 11 3d bd c8 97 bc
       -0.051710933 -0.05136713 0.03557421 -0.018528337
000150 e7 ed 4d bd 4c 6c af bc 56 c9 5e bd ab 40 c8 bb
       -0.05027571 -0.021413945 -0.054391228 -0.0061112246
000160 37 7b 10 3d 1e ac 69 3d ec ac 4f bd 73 f2 58 bd
       0.035273757 0.05704891 -0.05070202 -0.052965593
000170 da 3b 1a bd 21 ba 54 3d ec 1d c7 3c 73 91 04 3d
       -0.037654735 0.05193532 0.02430626 0.032365274
000180 28 f0 50 3d 9e 63 b6 3c 80 a5 27 3d 6d 6e c8 bc
       0.05101028 0.022264298 0.040929317 -0.024466718
000190 77 52 b3 bc c4 43 f8 3c 8c 10 96 bd 3d a4 5b bd
       -0.021889908 0.03030575 -0.07327375 -0.053623427
0001a0 f6 41 8b 3c 2d 46 45 bd 13 f9 e4 bb b2 96 93 bc
       0.016999226 -0.048162628 -0.0069877 -0.018016193
0001b0 83 9a d5 bd cb 58 a0 bd 20 27 53 bd 0b a2 15 bd
       -0.104298614 -0.07829436 -0.051550984 -0.03653149
0001c0 26 e6 07 bc 9b 97 23 3d ff ba 2d bd 10 28 13 3d
       -0.008294618 0.039939504 -0.04241466 0.03592688
0001d0 ab 15 e8 3b 66 d9 a0 3d 5a 19 0a 3d df e8 9a 3d
       0.007082661 0.078539655 0.033715583 0.07563948
0001e0 10 b0 06 bd 11 2f 83 3d b3 bf f1 3d 98 f4 91 bc
       -0.03288275 0.064054616 0.11804142 -0.017816827
0001f0 5c b1 13 bd 51 29 58 3d 79 06 11 3d 75 c9 ef 3d
       -0.036057815 0.052773777 0.035406563 0.11708347
000200 00 a5 99 3d 6f a6 53 bd 37 49 1d bc a6 e9 92 3d
       0.075021744 -0.051672395 -0.009599975 0.07173471
000210 39 00 86 bc 3c 77 26 3d e2 4c 73 3c 2b ed 72 bc
       -0.016357528 0.040641055 0.014849873 -0.014827053
000220 e8 62 19 3d f1 bc ac 3c 54 43 53 3d cf b4 b7 3b
       0.03744784 0.021086188 0.05157788 0.005606271
000230 ab 9e ff 3b 64 26 da bc c1 8a fa 3c f5 83 1d 3d
       0.007800897 -0.026629634 0.030583741 0.038455922
000240 a7 2d aa 3c c1 cd 6f bd 61 02 48 bd 7a 02 49 3d
       0.020773722 -0.05854583 -0.048830394 0.049074627
000250 9f e4 85 3d a4 50 8b 3c 8e 88 2c 3d 28 11 5b 3d
       0.06537747 0.017006226 0.042122416 0.05348316
000260 82 d1 24 3d 60 43 9c bc 82 a6 7e ba 2f 8a 41 bc
       0.040238865 -0.019075096 -0.00097141427 -0.011812731
000270 e3 92 a7 bd a4 19 67 bc dc a6 b6 bb 35 f4 48 bd
       -0.08182313 -0.014105234 -0.0055740904 -0.04906102
000280 0f 15 24 bd 7e bb 14 ba 46 60 2a 3d 31 f5 3a 3c
       -0.040059146 -0.00056736905 0.04159572 0.011410997
000290 e0 ff f1 bc 73 1e c8 bc 50 2e 50 3d 66 1a a7 3c
       -0.029540956 -0.024428582 0.050825417 0.02039833
0002a0 c6 05 bb bc 48 4f dd 3a 1e 04 e7 3b a4 2d be bd
       -0.022829901 0.001688459 0.0070500514 -0.09286049
0002b0 a7 8a bb bd 3f d2 90 bd fc a9 60 bd db a7 92 bd
       -0.09157305 -0.07071351 -0.05484961 -0.07160922
0002c0 fc 93 8a bd 47 da f9 bc f2 ad 2b bc 29 2c 3d bd
       -0.06766507 -0.03049959 -0.0104784835 -0.046184693
0002d0 8d f7 50 3d 26 60 53 bc a9 1b e8 3c a4 c8 36 bd
       0.051017333 -0.012901342 0.028333502 -0.04462494
0002e0 4c cd e2 bc 26 f5 52 bd 68 17 f2 bc 58 5d 23 bc
       -0.027685784 -0.051503323 -0.029552177 -0.009970985
0002f0 74 25 4b bc f5 9d a9 bd 81 63 f0 bd 49 6c e3 bd
       -0.012399066 -0.08282081 -0.11737729 -0.11104638
000300 cf 79 ea bc b3 41 b7 bc 3b f4 b6 bd 43 89 a4 3d
       -0.028622536 -0.022370195 -0.08933302 0.08033993
000310 81 51 ec 3c e3 f8 b1 3c 90 c8 bc bc 24 0c a5 bd
       0.028847458 0.021725124 -0.023044854 -0.08058956
000320 b0 5b a9 bd 1a 47 78 bd 99 ca e2 bd 44 d6 94 bd
       -0.08269441 -0.060614683 -0.11073799 -0.072674304
000330 cf 63 c8 3c 5b 71 2c 3c f0 18 aa 3b 3d 4c d3 3c
       0.024461655 0.010525073 0.005190961 0.02579319
000340 ec 89 08 3c 76 7f 2a ba 9c a1 15 3d fa 21 bb bc
       0.008333664 -0.00065039785 0.036531076 -0.02284335
000350 c2 40 b4 3c 6a ab e7 3c 4b 4f 62 3c 92 33 8a bd
       0.022003535 0.028279979 0.01381285 -0.067481175
000360 0f c5 29 3d b0 61 da bc c9 f6 6a bc c6 14 b5 bc
       0.041447695 -0.02665791 -0.014341065 -0.022104632
000370 3f 0d 13 bd 03 10 aa bd 0a c8 9b bd 10 c6 08 3c
       -0.035901304 -0.08303835 -0.07606514 0.008348003
000380 5c 47 d1 bd f9 69 a6 bd b9 82 a7 bd 7e 3a 12 bd
       -0.10218689 -0.081256814 -0.0817923 -0.035700314
000390 1d a7 95 3d eb 82 90 bc f9 4b 34 bd d1 76 e6 3d
       0.07307265 -0.017640552 -0.044017766 0.11253131
0003a0 b8 92 c4 ba 5f ee cd bc c2 d8 ef 3c 84 6d ba 3d
       -0.0014997339 -0.025138078 0.029278163 0.0910292
0003b0 62 a7 0f 3e c9 2f b0 bd bf c4 6c bd 9d 0b 1d 3d
       0.14028695 -0.08602864 -0.05780482 0.038341153
0003c0 15 29 06 be 1f de 84 bd 35 95 ca bd 24 46 2a 3d
       -0.13101609 -0.06487679 -0.0989174 0.041570798
0003d0 16 19 46 bd 0c 68 aa 3c b7 8f 40 bc c5 36 37 bc
       -0.048363768 0.020801567 -0.011753014 -0.011182492
0003e0 3c 3d 4e bc e2 7b 5c 3b fb 62 fe 3a 4b 8c a9 bd
       -0.012587842 0.0033643176 0.0019408161 -0.08278712
0003f0 2b ff 03 bd 0e 63 7f bd 8d 4e 32 bd e9 86 8a 3c
       -0.03222577 -0.062350325 -0.043531943 0.016910033

module.extractor.3.bias f4 [48]
000000 84 d6 fa bb 3b 9e 47 bd 49 9f fa 3c 2e 8b ac bc
       -0.007654967 -0.048734885 0.030593531 -0.02106246
000010 0c b0 bf 3d 24 e4 79 bc 6c dd 60 3b 91 3d 89 bd
       0.0935975 -0.015252147 0.0034311665 -0.06701196
000020 44 d8 b1 3c c1 30 26 bd f8 1c b9 bd 30 92 d4 bb
       0.021709569 -0.04057384 -0.090387285 -0.0064871535
000030 44 d1 d4 bc 90 0f df bc 8b 0c 1e bd 64 2d 4d bd
       -0.025978692 -0.0272291 -0.03858618 -0.050092116
000040 69 77 35 3d a5 99 4c bb 22 68 e1 bc 2e 8c 31 bd
       0.04430333 -0.003121951 -0.027515475 -0.043346576
000050 43 83 c7 ba f8 09 19 bd 4c ff 70 bd 47 91 8b 3c
       -0.0015221614 -0.037363023 -0.05883722 0.017037047
000060 c3 4f f2 3d e9 96 6d bd 99 90 73 bd f0 82 a6 ba
       0.118316196 -0.058005247 -0.05946407 -0.0012703817
000070 bc 03 c0 bd 5a b7 1a bd d0 a5 3a bd 0b a4 0b 3d
       -0.09375712 -0.037772514 -0.045568287 0.03409199
000080 45 b5 5d 3d 45 06 e8 3b fd fb 71 3a 6d 76 98 bc
       0.05412795 0.0070808255 0.00092309696 -0.018611157
000090 42 ec 73 bd ba 0f 1a bd e6 ac 6d bb 6b 0e 1a bd
       -0.059551485 -0.037612654 -0.0036266386 -0.037611406
0000a0 61 f5 0b bd 5d c1 ff bd 09 5c c9 3c 5c 67 28 bd
       -0.03416956 -0.12488053 0.024580019 -0.041114196
0000b0 f7 1a 08 3d b6 9a 91 bd b6 89 e6 bc 7e b8 7d 3c
       0.03322884 -0.07109587 -0.028141838 0.015485881

module.extractor.6.weight f4 [64, 48, 2, 2]
000000 60 f7 e5 3c c0 72 22 bd b1 cb 7a 3c a2 20 13 bc
       0.02807206 -0.039660215 0.015307353 -0.008979948
000010 64 35 a7 bc b8 b8 2d 3c e6 1f da bc 86 c8 b9 3c
       -0.0204112 0.010603122 -0.026626538 0.022678625
000020 03 e7 21 bd 0e e9 06 3d 28 7f 75 bd ec 8a 6d bc
       -0.03952695 0.032937102 -0.05993572 -0.014498454
000030 d8 7d 39 3d 3b d0 c9 3c c8 ea e7 3c 7e 45 eb bb
       0.04528603 0.024635425 0.028310195 -0.007179915
000040 f7 a2 1f 3d 1d be d2 bc 0f e1 a2 3d d9 41 14 3d
       0.038973775 -0.025725419 0.07953083 0.03619561
000050 d2 08 58 bc 6e c4 1b 3c e4 bc 0f bd 02 b6 14 3b
       -0.013185697 0.009507282 -0.03509225 0.0022691493
000060 3d 1f 92 bd ad d7 88 3c 7d a7 0c be ce fa 5d bd
       -0.071348645 0.016704405 -0.13735767 -0.054194264
000070 b5 92 5a 3d 19 9c 83 b9 26 30 bd 3c f6 f6 aa 3d
       0.053362567 -0.0002510257 0.023094248 0.08347885
000080 4c 87 64 bc c3 6a f3 bb 8e e9 f4 bc ed 5c 51 3b
       -0.013948273 -0.0074284985 -0.029896524 0.0031946257
000090 f2 e8 ed 3b 48 f9 6d bc 51 e6 fb bd 84 16 05 be
       0.0072604353 -0.014524765 -0.12299789 -0.1299687
0000a0 5a bc 34 3c d7 74 1c bd 94 31 46 3d fc 76 ad bc
       0.011031235 -0.038197365 0.048387125 -0.0211749
0000b0 ad 78 f0 3c 8e 37 8b 3c 33 0e 8f 3d 60 50 73 3d
       0.029354418 0.016994264 0.0698513 0.059402823
0000c0 ec e7 8b 3c 3e a9 c8 bc 77 7c 48 3d 58 fe 2e bc
       0.017078362 -0.024494763 0.048946824 -0.010680757
0000d0 34 a2 94 bc a0 c7 86 3d 81 e2 ee bc c1 f9 1c 3c
       -0.01814375 0.06581044 -0.02916074 0.00958103
0000e0 cd 23 94 3d 69 6d b1 bc f5 13 66 3d 4b 74 fe 3c
       0.07233391 -0.021658616 0.056171376 0.031061312
0000f0 99 6f 09 3d 2c bf 53 bd db 37 7d 3d bf 49 10 bd
       0.033553693 -0.051695988 0.061820846 -0.03522658
000100 e2 55 f4 3c 8b 12 08 3b 78 e9 05 3c d9 00 b3 bc
       0.029826108 0.0020763006 0.008173339 -0.02185099
000110 96 2c 2f 39 18 9f 6b bd e8 25 40 bd 3b f9 6d bd
       0.0001670591 -0.05752477 -0.04691115 -0.058099013
000120 05 5d 1c bd e1 94 e9 bc fd 7e ed 3c d3 57 1d 3c
       -0.038174648 -0.028513374 0.028991217 0.009603458
000130 e5 e5 af 3d cf a1 9f bc e1 05 b9 3c 92 4f 2b 3c
       0.08588771 -0.019486336 0.022585811 0.010455983
000140 d8 aa a2 ba cd 66 38 3c d5 c9 c1 ba 26 35 7a 3d
       -0.0012410535 0.011254978 -0.0014784882 0.061085843
000150 2e f0 5e 3c a9 88 08 bd 31 0e 2f 3d bc ce f2 3c
       0.013607068 -0.033333454 0.042738143 0.029639594
000160 fd ce d6 bc dc c5 e4 bc 1d d8 97 3d 5c 0d d0 3d
       -0.026221747 -0.027926378 0.07414267 0.10158798
000170 e3 63 ba bd 3c 60 e3 ba 96 d7 0f bc b3 d2 7b bc
       -0.09101083 -0.0017347406 -0.008779427 -0.015370059
000180 33 70 97 bc 41 9d 96 bc 98 ad 72 bc 33 e5 87 bc
       -0.018486118 -0.018385531 -0.014811896 -0.016588783
000190 79 e1 d0 3c b8 ab b4 bc 2d a1 1e bd 21 18 45 3d
       0.025498139 -0.022054538 -0.038727928 0.048118714
0001a0 d4 cd cd bc 2b 02 68 bd 0e 15 c2 bd 5f 82 80 bd
       -0.02512256 -0.056642693 -0.09476672 -0.06274866
0001b0 46 d8 04 bd fb f7 83 3c dd 3d 1e bd 2f ab cd 3c
       -0.032432817 0.016109457 -0.038633216 0.02510604
0001c0 8b ac 35 bd 8e 40 8f bc b5 d8 b4 bd a7 e5 a6 bc
       -0.044354003 -0.017486837 -0.08830396 -0.020373179
0001d0 c2 d3 0f 3c ab 4c a4 3a 92 38 75 bd 08 b9 77 bc
       0.008778514 0.0012535056 -0.059868403 -0.0151197985
0001e0 b3 50 ee 3a f9 bb 96 bc 04 40 7e 3d 65 a6 85 3c
       0.0018182009 -0.01840018 0.06207277 0.016314695
0001f0 27 19 c6 3d 51 37 a3 3d 46 c5 3d 3d 51 a4 42 bd
       0.09672766 0.07969535 0.046330713 -0.047519986
000200 2b 09 b4 bd 5c 8b b0 bc e7 cd d8 bd 39 65 ab bd
       -0.08790811 -0.021550827 -0.10586148 -0.08368916
000210 a5 82 09 3d 29 bf 06 bc 1f d8 3d 3d 5d 05 9d 3c
       0.033571858 -0.008224287 0.046348687 0.019167596
000220 b1 c5 e9 ba 94 40 23 bd 07 b6 c8 bc 0b f8 3b 3d
       -0.0017835406 -0.03985651 -0.02450086 0.04589085
000230 3f 76 65 3d dd 04 c6 bc e7 35 ec 3c a7 fc e0 3c
       0.05602097 -0.02417224 0.028834296 0.027464224
000240 36 7c ec bc 5c 46 10 3d 4b 35 1c bd b7 04 02 3c
       -0.028867822 0.03522335 -0.03813676 0.007935694
000250 43 01 1a bd 9e d9 70 3c 0b 2e 04 3d 13 87 85 3c
       -0.03759886 0.0147003215 0.032270472 0.01629976
000260 6a 77 2a bd 5e a4 20 bd f7 32 8f 3b 9b 68 1f bd
       -0.04161779 -0.039219253 0.004370089 -0.03891812
000270 a8 8c 5a 3d c8 d5 53 bc ca 55 5b bc 17 81 bf bd
       0.053356797 -0.012929387 -0.013387153 -0.09350794
000280 82 af 64 bd 98 7f 87 3d d0 de c4 bd 24 b9 75 3c
       -0.05583144 0.066161335 -0.096128106 0.014997754
000290 8c 99 cf 3b 4f ab 63 ba 7d a9 ba 3d 2b d5 1a bd
       0.006335443 -0.000868489 0.091143586 -0.03780095
0002a0 0d 31 01 3d fd 5e 14 3d e6 1b 8e bd 98 1c b3 bb
       0.03154092 0.0362234 -0.06938915 -0.005466055
0002b0 8a bf f6 3c 14 7a c5 3d 92 90 1b bd 7a 82 d6 3c
       0.03012063 0.09642425 -0.03797967 0.026185263
0002c0 e1 2b 84 3c df 57 70 bc 01 74 ef bd 54 23 a6 bd
       0.016134204 -0.014669388 -0.11692048 -0.08112207
0002d0 c0 c2 b3 bc bf ac a0 3a f9 96 94 bb 80 f7 73 bd
       -0.02194345 0.0012258514 -0.004534599 -0.059562206
0002e0 3b 87 64 bc f8 cc 3e 3c 56 0e e2 3c 3f ad 74 3c
       -0.013948257 0.011645548 0.027594727 0.014933883
0002f0 f7 5e 7a 3d 31 3a e3 bb 56 d5 ad 3d 3b 3b 2a bd
       0.06112572 -0.006934427 0.08487956 -0.041560393
000300 0e da 45 b9 79 d4 fa 3c 5a 29 be 3c 73 d7 3d 3d
       -0.00018868616 0.030618893 0.023213077 0.046348047
000310 e2 5e 67 3d 7e 42 86 3c 11 96 8e 3d 3b e4 83 3c
       0.05648697 0.016389128 0.06962217 0.01610004
000320 51 a6 bc bc d3 ba 98 3d 43 a9 44 bc 43 0c 99 3d
       -0.023028525 0.07457509 -0.012003246 0.07473042
000330 a6 e2 3c 3d 82 8a 0f bd 12 19 49 3c ef 0f 76 3c
       0.046114586 -0.0350442 0.012274044 0.015018447
000340 a6 d9 3a bc 4a 00 81 bc 68 51 5a 3c 5d 85 6c 3c
       -0.0114044305 -0.015747208 0.013325073 0.014436093
000350 8c 68 ee 3b 9b 7e ca 3c e5 19 87 bd 44 8f c1 3b
       0.0072756466 0.024718573 -0.06596736 0.005906971
000360 a2 96 b1 3c 73 11 80 bd 66 86 cb bc 56 9a dd ba
       0.021678273 -0.06253328 -0.02484436 -0.0016906958
000370 d8 b4 b2 3c 8c a4 38 3d 0e 3e ac bc 63 61 9b bd
       0.021814749 0.0450788 -0.021025684 -0.075869344
000380 a4 aa af 3c 84 9e b6 3b af 25 06 3d 44 0f 68 bc
       0.021443672 0.0055730958 0.03275078 -0.014163796
000390 84 ff de bb 62 67 8a bd 2c b3 ef 3c 1d ec 37 bc
       -0.006805362 -0.06758 0.02926024 -0.011225727
0003a0 db 85 0e bd 67 b2 07 39 43 6a f8 3b ec 28 12 3d
       -0.034795623 0.00012941063 0.0075810268 0.035683557
0003b0 6c 1b af bb d1 7e 52 3d d4 08 b6 3b 6d f1 67 bd
       -0.005343845 0.051390473 0.0055552516 -0.056626726
0003c0 85 44 2a 3c b7 7a 2f bd dc da 16 3d 7a 24 df 3c
       0.010392313 -0.04284164 0.036829814 0.027239073
0003d0 98 72 fb bb 3b e0 89 3c 27 14 b3 bc c0 04 89 bc
       -0.0076735727 0.016830554 -0.021860195 -0.016725898
0003e0 89 42 0c 3d 8a 59 26 bd 1c fc 8a 3b f4 47 15 3d
       0.03424314 -0.040612735 0.0042414796 0.036445573
0003f0 d6 57 35 3d c5 e0 03 bd 77 73 9d 3c 7b a7 fc bc
       0.04427322 -0.03219678 0.019220097 -0.03084158

module.extractor.6.bias f4 [64]
000000 ee ff 83 bb ab 3f d0 bc 9c 15 1c 3b 4c 03 26 3d
       -0.004028312 -0.025420984 0.002381659 0.040530488
000010 66 8d 3e 3d ea 34 93 3d 8c ee 71 bd 26 47 9f 3d
       0.046521567 0.07187827 -0.059065387 0.07777242
000020 21 47 27 bc 8d 90 fd bd e8 6d 0d bd 7e 91 d0 3d
       -0.01020983 -0.123810865 -0.034528643 0.101840004
000030 e4 98 06 bc 23 79 f0 bc bd 94 c0 3d ee d0 9e 3d
       -0.008215163 -0.029354637 0.094033696 0.07754694
000040 5a 0f 0b 3d 9c 5d e5 3d 45 34 2b 3c 60 1c e7 3d
       0.033950187 0.11199495 0.010449474 0.11284709
000050 32 ce 4c 3d 66 04 a4 bc 4e 29 ca bc a9 aa 05 3e
       0.05000133 -0.020021629 -0.024677899 0.13053383
000060 d6 c9 ee bb 34 e8 98 3d f7 58 05 3e 5e 61 8d bc
       -0.0072872443 0.07466164 0.13022219 -0.017258342
000070 1e 58 8d 3d 51 ca 33 3e dc 12 72 3e 90 db de bc
       0.06901573 0.17557646 0.23640007 -0.027204305
000080 43 fb 20 3c a3 c5 f9 bc c2 ad 9b 3c 9a ca c6 3c
       0.00982553 -0.030489748 0.019003753 0.02426653
000090 26 c1 c3 bd 46 1f 3a bd 5a 28 fe 39 25 17 24 bc
       -0.095583245 -0.04543998 0.0004847672 -0.010015284
0000a0 73 1b 4c bd 7b 5c 83 3c 53 99 05 3d fa 41 51 bd
       -0.049830865 0.016035309 0.032616924 -0.05108831
0000b0 ef f6 d4 3c f2 bc bb bb d7 a2 55 bc a3 7e 27 3c
       0.025996653 -0.005729311 -0.013039312 0.010223064
0000c0 56 99 b6 3b 23 7b c0 bc f2 09 a0 3d 6c b0 49 3d
       0.0055724783 -0.023496216 0.07814397 0.049240515
0000d0 e0 41 60 3c 5a 1b 01 3c 49 ab a2 3c 59 db eb bb
       0.013687581 0.007880056 0.019857066 -0.007197779
0000e0 ba db 11 3c 5f 39 13 3d 50 84 08 bd 81 ab 71 3d
       0.008902485 0.035943385 -0.033329308 0.05900145
0000f0 b2 f3 e5 3c bd c3 f7 3c 7b 2b ac 3c ea 9f 61 3d
       0.028070305 0.030244702 0.021016827 0.055084147

module.fc.weight f4 [128, 576]
000000 d0 7e 5c bc c0 19 50 bc 17 0e 34 bc eb 7f 31 3c
       -0.013457969 -0.012701452 -0.010989687 0.010833721
000010 de ff 4a 3c ab ad 9c bc 65 f5 bf 3b 21 20 92 bc
       0.012390105 -0.01912578 0.0058581107 -0.017837586
000020 52 8a cc bc f4 5d 94 bc ee 66 18 bc c5 91 e7 bc
       -0.0249683 -0.018111207 -0.009301884 -0.02826775
000030 c0 04 84 3c 65 a2 b7 bc cc 7a 48 ba 62 29 18 bc
       0.016115546 -0.022416303 -0.00076476927 -0.00928721
000040 f5 7f f3 3b 08 67 ff 3b 9b ab ff ba f2 78 58 3c
       0.007431025 0.0077942647 -0.0019506098 0.013212429
000050 1d 42 1f 3c e0 4b 0d 3a 77 95 99 bc e8 1f 9c bc
       0.0097203525 0.00053900294 -0.018748028 -0.019058183
000060 19 ca 68 bc d0 28 df bc 19 67 ab bc 44 31 60 bc
       -0.01420834 -0.02724114 -0.020923184 -0.013683621
000070 1e f8 da 3c ce 6d 2b bb c5 a6 00 bb f8 7b 49 bc
       0.02672964 -0.0026157978 -0.0019630652 -0.012297623
000080 2c 3d 37 3c 80 d3 85 bb 36 ee 2e 3c 57 19 83 3c
       0.011184018 -0.0040840507 0.010676911 0.016003294
000090 de 0a b3 3a 1a 17 49 bc a9 a5 93 b9 a2 77 a5 3c
       0.0013659855 -0.012273574 -0.0002816145 0.020198647
0000a0 9e 6d ac bc 23 95 b6 bc e6 7b 0f bc ba de 74 3c
       -0.021048363 -0.02228791 -0.008757567 0.01494568
0000b0 35 54 1e 3c d2 a4 a1 bc fd 78 b1 3c 79 94 6a bc
       0.009663631 -0.019731913 0.021664137 -0.014317625
0000c0 87 04 df 3c dc 13 8d 3b 85 c9 9b bb 35 e1 c6 bc
       0.027223838 0.004305346 -0.0047542476 -0.024277309
0000d0 db 62 af bb 95 44 98 bc 33 87 04 3c 14 05 23 3c
       -0.0053523607 -0.01858739 0.008088875 0.009949941
0000e0 60 7f a1 bc 99 66 b4 ba 59 d6 1c 3c 01 24 a0 3b
       -0.019714057 -0.0013763487 0.009572589 0.0048871045
0000f0 70 8c 7e bc 74 18 69 bc b9 32 38 bc 56 f0 d6 bc
       -0.015536413 -0.0142270215 -0.011242562 -0.026237648
000100 ed 9f 2d bc 5a 48 a2 3c b4 d7 79 bb bd e0 d1 ba
       -0.010597211 0.01980989 -0.0038122954 -0.0016012412
000110 fb 7c 63 bc eb 0a 11 3a a2 a9 dc bc 61 fc 81 3c
       -0.013884778 0.0005532938 -0.026936356 0.015867414
000120 1b a6 1b 3c d4 bb c6 3c 52 bc f2 bb ba cd 4e 3c
       0.009500052 0.024259485 -0.0074077034 0.012622291
000130 07 63 2f bc 86 8b 2a 3c 2a 40 81 ba b4 33 47 bc
       -0.010704762 0.010409242 -0.0009861041 -0.012158323
000140 57 b6 1a 3b cb a2 3e 3c 94 d0 ee bb 0a d5 ab 3a
       0.0023607218 0.011635493 -0.007288048 0.0013109755
000150 e0 40 3a 3c 4f 36 2d 3b 66 06 f3 bc 2b 34 fa bc
       0.0113680065 0.0026430076 -0.029666137 -0.030542454
000160 0c a4 84 bc cc 15 dd 3b 38 7f c1 3c 24 85 e3 bb
       -0.016191505 0.006746983 0.023620233 -0.006943362
000170 04 ea ae 3c e9 1b e6 bc af 31 b8 3b e1 93 4e bc
       0.021351822 -0.02808948 0.005621157 -0.012608499
000180 83 fc a2 3c 75 55 75 3c e9 37 90 3c 6a 26 4b 3c
       0.019895798 0.014973988 0.017604785 0.012399295
000190 c4 bb b3 bc 17 68 8c bc 66 f7 e4 bb 1e c4 13 bc
       -0.02194012 -0.017139478 -0.0069875 -0.009018926
0001a0 c2 a1 9e bc a1 ff ae 3c a2 8e 49 bc ab 60 9a bc
       -0.019364242 0.021362128 -0.012302073 -0.018844923
0001b0 04 b2 3a 3c 8b a3 fa 3b ef 81 1d bc f5 e0 83 bc
       0.011394981 0.0076488904 -0.009613498 -0.016098479
0001c0 f7 f5 50 3c d7 d2 5f bc f8 6f 46 3c 47 7e c5 bb
       0.012753955 -0.013661108 0.012111656 -0.0060270163
0001d0 9b 85 00 3c cf 08 0b 3c b9 3c 42 3b ac c4 ec 3b
       0.007844354 0.008485987 0.0029638244 0.0072255936
0001e0 3c de 9e 3c e7 65 8c 3c 17 b7 72 3c 7d b6 8d 3c
       0.019393079 0.017138435 0.01481416 0.017298931
0001f0 7c 3f 34 bc 47 12 98 bc ef 41 b1 bc d4 8d a3 bc
       -0.011001464 -0.018563403 -0.021637885 -0.01996509
000200 a0 43 ce 3a 14 91 bd 39 fd 2f e6 3b 36 2b d4 bb
       0.0015736707 0.0003615698 0.0070247636 -0.0064748777
000210 64 e2 f4 b9 44 b2 14 bc 6f 9f 81 bc c4 fd 37 3c
       -0.0004670798 -0.009075705 -0.015823094 0.011229936
000220 cd 07 9e bc 92 79 9b bc 78 6c a1 3c a1 f1 7a bc
       -0.01929083 -0.018978868 0.019705042 -0.015316398
000230 c0 a0 08 bc f1 ea e8 bb cf 91 b6 bb 3f 12 89 3c
       -0.008339107 -0.0071080853 -0.005571581 0.016732333
000240 5f c1 ec 3c 81 a9 1d 3b 7c 4a b2 bb c1 f4 b7 3c
       0.0289008 0.002405733 -0.005441008 0.022455575
000250 0e aa 6f bc 5a b5 0d 3c 05 61 36 3b 71 4b 1e bc
       -0.014627947 0.008649195 0.0027828824 -0.009661541
000260 15 72 cb 3a 0f 21 30 bb 26 9b ff 3b e0 4f fa b9
       0.001552167 -0.0026875173 0.0078004776 -0.00047743227
000270 6a 6f 72 bc e0 ba e4 bb 4d 74 d8 3b e2 5e 62 bc
       -0.014797071 -0.006980285 0.006605661 -0.013816567
000280 bf 6f 60 bc ef 03 64 bc 67 64 80 3c aa d2 15 bc
       -0.013698517 -0.0139169535 0.015672876 -0.0091444645
000290 7d 2b e9 bb 5d 9d 7e 3c bd 09 64 bc f2 05 b0 bc
       -0.00711578 0.015540448 -0.013918337 -0.02148721
0002a0 8a c7 44 3c 71 98 0a 3c 5e 56 c4 bb f0 85 b6 3a
       0.012010464 0.008459196 -0.005991741 0.0013925415
0002b0 14 99 36 3c b1 68 99 3c e5 4b bd 3c 40 22 7b 3c
       0.011144895 0.018726679 0.023107478 0.01532799
0002c0 9a e3 93 bc 1f 43 3f bb cd 33 3f 3a 1b d9 0f bc
       -0.018052865 -0.0029184294 0.00072937907 -0.008779789
0002d0 ae 90 76 3c c1 b7 03 bc 86 ee fb 3b b1 77 82 3b
       0.015049143 -0.008039416 0.0076883463 0.0039815535
0002e0 a7 06 97 bc 92 f1 8b bc 25 85 c2 bc 91 de bf b7
       -0.01843579 -0.017082963 -0.023745129 -2.2872615e-05
0002f0 6e 69 b2 3c 63 dc 9f 3c c6 1d 76 3c d7 0f 50 3c
       0.021778788 0.019514268 0.015021747 0.012699089
000300 fa d1 03 bc ec a4 ef bc ff 76 cd bc 72 13 83 3c
       -0.008045668 -0.029253446 -0.025081156 0.016000483
000310 84 db 31 bc 0c e4 86 bc f8 d9 92 bc 45 6b 5a 3c
       -0.010855559 -0.016466163 -0.017926201 0.013331239
000320 3f 7c e9 bb 51 c3 4b bc c3 00 e6 bc 22 c9 b7 bb
       -0.007125407 -0.012436704 -0.028076535 -0.0056086937
000330 c7 6c 23 3b 38 62 8e bc 04 de 9f 3b 69 e5 12 bc
       0.0024936663 -0.017380819 0.0048787612 -0.008965828
000340 08 22 81 ba 1e 4d 42 bc 5e 1b 38 3c 3d 30 bb bc
       -0.0009852061 -0.0118592065 0.011236994 -0.02285015
000350 70 76 35 bb cc 32 43 bc 82 26 e2 3a 9d de 75 bc
       -0.0027689002 -0.011913966 0.0017253908 -0.015006688
000360 7b 04 b0 3c 10 c8 99 3c 23 65 40 3c 09 2e 8d bc
       0.021486511 0.018772155 0.011742863 -0.017233865
000370 46 28 85 3c 35 96 87 3b 47 a2 c6 3c c3 d1 89 bc
       0.016254555 0.004137779 0.024247302 -0.016823655
000380 6d 9b 8b 3c 20 70 85 3b d4 21 fd ba de 86 a6 bc
       0.017041886 0.004072204 -0.001931245 -0.020327982
000390 bc 9c 9b 39 ec d6 c8 bc 40 7d 45 bc 5f e5 97 bc
       0.0002968068 -0.024516545 -0.012053788 -0.01854199
0003a0 32 a1 c1 bc 33 de e8 3a fe e1 d3 bc 1e 5a d2 bc
       -0.023636434 0.0017766416 -0.025864597 -0.025677737
0003b0 a7 16 7e bc a9 89 49 3c 2d fd b0 bc b2 cc da bc
       -0.01550833 0.012300887 -0.021605099 -0.026708934
0003c0 01 db a0 bb 33 5f 5e 3c 2b 5c 6b 3c f0 0d 82 bc
       -0.00490892 0.013572502 0.014365236 -0.015875787
0003d0 0f 7b 9d bc 67 4a c7 3c 32 2a e3 3b eb aa b7 3c
       -0.019223718 0.02432747 0.0069325203 0.022420367
0003e0 31 e7 c9 3c f4 77 15 3b bf 9a b3 bc ec b8 a7 ba
       0.024646373 0.0022807093 -0.021924375 -0.00127962
0003f0 a6 6e 25 3a 0b b7 ae bc 3c f9 0f bc 75 c4 16 bc
       0.00063107384 -0.021327516 -0.008787449 -0.009202112

module.fc.bias f4 [128]
000000 04 ca da bc 7b 5b 46 3d 02 ec 45 bc d4 32 9b 3c
       -0.026707657 0.048427086 -0.012080194 0.018945135
000010 55 68 91 bc 98 9a 6e 3c 2a 4a 8c 3b ec 03 5a 3d
       -0.017749945 0.014563225 0.004281302 0.053226396
000020 f7 dc ad 3c 61 07 f8 3b eb 18 80 3c 38 c4 12 3d
       0.021223528 0.007569239 0.015636882 0.03583166
000030 b9 00 47 3e 4f 64 df bc a7 26 df bb 4a f4 1a 3c
       0.1943387 -0.02726951 -0.0068100276 0.009457657
000040 aa 1e 99 bc c7 88 7b 3d 6e 64 0e 3b 9d 1e 1d 3e
       -0.01869138 0.061409738 0.0021727341 0.1534371
000050 9e 6f e9 3b da 2d 5c bc 7a 1e 17 3d 06 78 85 3d
       0.0071239015 -0.013438666 0.0368943 0.06517033
000060 3a 77 9f 3d 2d 5c d5 bc f5 a1 a2 bc 86 44 17 bc
       0.077864125 -0.02604493 -0.019852618 -0.009232646
000070 da 82 55 3d ae 73 7f 3c 62 ee 7a 3d d8 c4 08 bb
       0.052126743 0.015591545 0.061262496 -0.002086928
000080 07 c2 a2 bc 93 89 20 3c 90 f1 62 bc 5f f6 c7 3c
       -0.01986791 0.009798425 -0.013851538 0.024409471
000090 6c 56 44 bc 04 c2 5c bc 7c 54 97 3d 25 42 d1 bc
       -0.011983495 -0.013473991 0.07389161 -0.025544235
0000a0 d9 a6 a4 3b a2 35 cc 3c ee 95 2e bc 29 66 14 3c
       0.0050247726 0.024927918 -0.010655863 0.00905756
0000b0 70 f4 1f 3c e9 c7 12 bc f1 7e 23 bb 44 45 0d 3e
       0.009762868 -0.008958795 -0.002494749 0.13795954
0000c0 76 e6 c2 3b 5d 00 cf 3d ac d0 0c bb d2 24 25 bc
       0.0059478832 0.10107491 -0.0021486683 -0.010079579
0000d0 ed 3a bc bc 4e 6d 27 3b 58 47 1c 3c ff cf de 3d
       -0.022977317 0.0025547328 0.009538494 0.10879516
0000e0 b7 e5 c4 3c 8e 5d 30 3e d0 03 7c 3c a7 24 77 bc
       0.024035318 0.17223188 0.015381768 -0.015084422
0000f0 83 71 8a 3a d7 94 34 3d 45 6e ff 3a 9c 87 dc bb
       0.0010562394 0.044087257 0.0019487819 -0.006730033
000100 ff 82 ee 3c 62 b8 8b bc a7 e8 94 3c 2c 6f 12 bc
       0.029115198 -0.017055694 0.018177344 -0.008937638
000110 40 55 2b bc ba 56 9d bc 9f 99 a3 3c 80 22 cc bc
       -0.010457337 -0.019206394 0.019970713 -0.024918795
000120 82 4d b1 3d 72 c5 72 3c 7d 62 a6 3b 98 98 cd 3c
       0.086573616 0.014817582 0.0050776587 0.025097176
000130 20 81 8d 3c 9b 73 8a 3c 84 05 d1 3b 17 c4 ca 3c
       0.017273486 0.016900828 0.0063788313 0.024751706
000140 1c 95 d3 bc bb 16 1b 3c f8 fb b9 bc cf 0d 0b 3c
       -0.025827937 0.009465869 -0.022703156 0.008487179
000150 7d 7e da 3c d9 24 0f bc 45 51 b4 3c 03 19 82 bc
       0.026671642 -0.0087368125 0.022011409 -0.015881067
000160 61 93 12 3d 55 47 19 3b d3 ac 28 bc 16 15 ab bb
       0.035785083 0.0023388464 -0.010295111 -0.0052210195
000170 08 05 2d 3d 85 9f 55 3c f9 ec 4a 3d 22 94 aa 3d
       0.042241126 0.013038521 0.0495424 0.08329035
000180 55 fa 3c 3c 50 83 f2 3d 7a a3 bf 3a 85 cb 8b ba
       0.011534293 0.11841452 0.0014620863 -0.0010665512
000190 25 1f e9 bc 22 01 a0 bc d9 7d 04 3c 78 31 65 3b
       -0.028457234 -0.01953179 0.008086645 0.0034972113
0001a0 5a 54 ab 3d 8a 87 c6 3c b2 a6 7b 3a 99 ab d3 3b
       0.08365698 0.024234552 0.00095997297 0.006459665
0001b0 60 0b 8e bc 7d d0 22 3e a7 42 6d 3b 59 d0 db 3d
       -0.017339408 0.15899844 0.0036203058 0.107330985
0001c0 fd 49 66 bd c1 3c 9b bc 34 69 6c 3b 9b a2 18 3d
       -0.056222904 -0.018949868 0.0036073448 0.037264448
0001d0 77 48 bf 3d 44 f8 1e 3e 59 f8 18 3e b7 c2 1f 3c
       0.093399934 0.15524393 0.14938487 0.0097510135
0001e0 be bb b4 3c d4 f7 55 3c ed d5 7a 3e 06 14 fc 3c
       0.022062179 0.013059575 0.24495669 0.030771267
0001f0 63 8c 70 3c d8 08 c6 3c 1a 29 92 bb 18 f0 80 3d
       0.014681908 0.024174139 -0.004460466 0.06295794

module.cls.weight f4 [2, 128]
000000 7a 06 0d bb 00 32 71 be 00 5a b4 3d fc 2c 42 bc
       -0.0021518753 -0.2355423 0.08806229 -0.011851545
000010 67 26 95 3c bf 87 46 bd 0a a5 1f bc f1 e4 48 be
       0.018206788 -0.0484693 -0.009743938 -0.19618584
000020 52 d0 46 3d 08 6d f6 bc 8f 74 7e 3c ad cd c2 bd
       0.048538513 -0.030081287 0.015530719 -0.09511886
000030 48 9e 43 3e 19 a9 e4 bd ef d1 7c bd 5f 29 89 3d
       0.19103348 -0.11165065 -0.061723646 0.06697344
000040 7b 32 06 bc 8e 13 59 3e 91 1a 31 3c a4 d4 82 bc
       -0.008190746 0.21198866 0.010809557 -0.015970536
000050 e9 6b 09 3d a9 c7 71 be 35 41 86 be 88 33 6a be
       0.033550177 -0.2361132 -0.26221624 -0.2287122
000060 c5 93 54 3e c2 6b 1b 3d fa 6c dd 3d 83 b6 03 3b
       0.20759495 0.037944563 0.10811801 0.00200978
000070 18 17 4d 3e a4 fb 90 39 54 73 8b be e3 5f 7e 3c
       0.20028341 0.00027653307 -0.27236426 0.015525791
000080 e5 05 71 bd b4 ad 8d 3c ec 5f f8 3c 62 69 01 bd
       -0.058843512 0.017294742 0.030319177 -0.03159464
000090 1b 50 d2 3c 24 47 f7 3d e6 64 82 3e e9 56 db 3c
       0.025672963 0.12074116 0.25467604 0.02677484
0000a0 56 a5 0e 3d 4d 12 e4 3c 83 e5 e5 3c 93 76 25 bb
       0.034825645 0.027840758 0.028063541 -0.0025247678
0000b0 33 db aa bd 57 54 cb bc 71 fc 77 3d 05 9a 04 3e
       -0.0834259 -0.02482049 0.06054348 0.12949379
0000c0 5a 30 e3 3c 91 12 f4 3d e9 32 19 3e ee 29 06 3d
       0.027733017 0.11917604 0.14960827 0.03275483
0000d0 bb eb 8a bd a8 81 3b bc 42 47 f2 bc b5 b7 16 3e
       -0.06783243 -0.011444487 -0.029574994 0.14718516
0000e0 ed d6 45 3e 76 9c 64 3e 4a 23 d3 3b 91 04 63 3d
       0.19320269 0.2232531 0.006443416 0.055424277
0000f0 bc cb eb bd 50 9f 0c 3e 67 21 c6 bd e2 f4 a5 bd
       -0.115134686 0.13732648 -0.0967434 -0.08103348
000100 db 95 2f 3e 60 80 0c bd be 19 07 bd 3b 88 a7 bc
       0.17147009 -0.034302115 -0.032983534 -0.020450702
000110 c1 80 55 bd 6a 40 ba bb 9f 12 50 3c 9c 56 d6 bc
       -0.052124742 -0.0056839483 0.012699752 -0.026164345
000120 fa df 01 3e 04 f2 6d 3e d9 9d ce 3c 53 6a 1a bd
       0.12683097 0.23236853 0.025221752 -0.037699055
000130 ee 48 c5 3c 40 97 28 3d 14 3a bb 3c 1b f1 75 3c
       0.024082627 0.04115987 0.022854842 0.015011097
000140 ad 36 54 bd fd 50 9c bc ae 4b 7b bd bf c7 9b bb
       -0.051809955 -0.019081587 -0.06135147 -0.004754036
000150 ea cb 8a 3d fc 4a de bb 55 5a 85 bc 3c 1f 2f 3d
       0.06777175 -0.006783841 -0.016278425 0.042754397
000160 ea 34 01 be d4 99 fb 3c 1a cc 78 3c 38 0d f9 3a
       -0.12617841 0.030713 0.01518538 0.0019001132
000170 22 df 79 3e fd 24 8a 3e fe 53 4e be 41 47 36 3e
       0.24401525 0.26981345 -0.20149228 0.17800619
000180 af 5e 3c 3d 53 72 82 3d f8 78 bf 3d 68 d0 5d bc
       0.045988735 0.06369462 0.09349245 -0.013538457
000190 a2 07 d0 bc a9 a7 6a 3c d6 80 fd 3b bd d4 8f bb
       -0.025394265 0.0143222 0.0077363057 -0.004389374
0001a0 83 87 7d be f4 9d 94 bc 8b e7 4a bd 75 1d ca bd
       -0.24758725 -0.018141724 -0.049537223 -0.098689
0001b0 99 ac 36 bd d2 30 85 3e cc 38 a6 bb 17 6c 5d 3e
       -0.044598196 0.2601381 -0.0050726887 0.21623264
0001c0 6c d0 74 be 4f e8 23 bd dd 70 64 3d 00 63 1b 3e
       -0.23907632 -0.04001647 0.055771697 0.15174484
0001d0 09 34 7b 3e 7c 9e 84 3e 8a ca 2e 3e 7c 6e 4f 3d
       0.24531569 0.25902164 0.1706945 0.050642475
0001e0 94 a4 8c be 0d e9 ca bb 7b 4b 96 3e e8 aa 97 be
       -0.27469313 -0.0061923326 0.29354462 -0.2962258
0001f0 a9 b4 fc 3b f5 69 ea bd e3 e8 b5 3c 7b 20 82 bd
       0.007711966 -0.11445991 0.022205776 -0.063538514
000200 41 fb 3f 3d ab 2d 89 3e 41 07 c5 bd af e4 40 bc
       0.046870474 0.26792654 -0.09620524 -0.011773272
000210 3c 0b d3 bc 19 03 84 bd 68 21 7c bb c0 84 6b 3e
       -0.025762193 -0.06445903 -0.003847206 0.22999859
000220 99 78 71 bd b0 58 9b 3c f2 e9 68 bb 07 35 0f 3e
       -0.0589529 0.018963188 -0.0035539833 0.13985072
000230 ee 24 22 be a2 81 0d 3e c3 6f f2 bc 78 0f 45 bd
       -0.158344 0.13818982 -0.029594308 -0.048110455
000240 41 19 2e 3d 50 16 2f be ef 39 f4 3c e0 fc 82 ba
       0.042504553 -0.17098355 0.029812781 -0.0009993576
000250 85 39 c2 3c 38 cd 47 3e bb 61 47 3e d0 26 88 3e
       0.023709068 0.19511878 0.19470875 0.26592112
000260 c4 43 37 be 64 21 ba bc ab 64 0b be f5 22 ce 3b
       -0.17896944 -0.022721 -0.1361262 0.0062907883
000270 72 8e 65 be 6f 2e ae bc 8c 3b 8b 3e e4 a5 5e 3c
       -0.2241762 -0.021262376 0.27193868 0.013589356
000280 b6 fe b7 bb e4 62 ff 3c 77 f5 fe bb d5 0b 8d bc
       -0.0056150807 0.031175084 -0.0077807265 -0.017217556
000290 3e 44 e5 3c e9 1c b3 bd c1 22 81 be d3 a0 96 bb
       0.027986642 -0.087457485 -0.25221828 -0.0045968085
0002a0 20 25 c8 3c 81 f0 00 bd 07 e2 5a 3a 5f d7 16 3c
       0.024431765 -0.031479362 0.0008349721 0.009206622
0002b0 bd 90 bc 3d 9b 1b 18 3d 32 ac 00 be b3 e9 62 be
       0.09207294 0.0371357 -0.12565687 -0.22159462
0002c0 b2 5e 57 3d 50 a4 ce bd 1b b8 72 be c6 d2 b6 bc
       0.052580543 -0.10089934 -0.23703043 -0.022317301
0002d0 b1 44 a3 3d 62 44 77 bd 73 c6 23 bc 74 3c 60 be
       0.07972086 -0.06036795 -0.009996044 -0.21898061
0002e0 37 6b 64 be 66 91 77 be cb e0 10 3d 9e 84 cf 3c
       -0.22306524 -0.24176559 0.03537063 0.025331791
0002f0 b1 5f 4a 3e 39 72 4c be f5 51 f9 3d 58 48 08 bb
       0.19763066 -0.19965447 0.12173835 -0.0020795073
000300 fb 81 17 be 17 8c 53 bc f9 b5 8e ba 34 0e aa 3d
       -0.14795677 -0.012911818 -0.0010887972 0.0830349
000310 94 9c 56 bc 87 1e 56 3b bc e9 db 3a 68 80 f3 ba
       -0.013098855 0.0032672004 0.0016778032 -0.0018577697
000320 4f 9a 6e be 3a 57 21 be d3 b4 09 3d b1 27 0a 3d
       -0.23301052 -0.1575593 0.033619713 0.03372926
000330 e2 96 3a 3d 0f 48 67 3d 56 cd 52 3c 90 4e 3a 3d
       0.04555405 0.056465205 0.012866339 0.04548508
000340 30 9c 66 3b d0 12 33 bc 8a 68 2c bd 1e 69 2d bc
       0.003518831 -0.010929778 -0.042091884 -0.010584144
000350 67 7a 5f 3b 66 13 c9 bc c1 ab e2 3c fc 6c a9 3c
       0.0034100057 -0.024545383 0.02766979 0.02068185
000360 6c b1 3e 3e 12 7b c3 bc c0 50 ae bb 9f 80 21 3d
       0.18622369 -0.023862395 -0.0053196847 0.039429303
000370 ec 0b 6d be 25 97 3d be 47 7c 93 3e 98 98 52 be
       -0.23149079 -0.18514688 0.28805754 -0.20566022
000380 a9 7f 8e 3c d5 f8 b1 bd 86 2b 58 bd 88 37 c2 bc
       0.017394857 -0.08690039 -0.052775882 -0.02370812
000390 db 5e 8e 3d 13 9c 31 3d aa f5 e4 3a b0 f7 11 3d
       0.06951686 0.043361735 0.0017468233 0.035636604
0003a0 62 c4 81 3e 4d 9d da 3a 6e 0b 4d bd 5c 75 3a 3d
       0.2534514 0.0016678959 -0.05005973 0.04552208
0003b0 bd 3e ed bc 74 d8 65 be b2 62 03 bd 03 14 30 be
       -0.02896058 -0.22445852 -0.032076545 -0.17195134
0003c0 a0 e1 63 3e c9 98 89 bc 06 5e 31 3c 47 d0 24 be
       0.22254038 -0.016796486 0.01082564 -0.16095077
0003d0 f3 f4 35 be b0 3e 76 be ef 08 25 be 5e 49 32 3d
       -0.17769222 -0.24047351 -0.16116689 0.043527
0003e0 7c 07 3a 3e f9 0e 2c 3d 58 e2 5e be a4 30 51 3e
       0.18166918 0.042006467 -0.21766031 0.20428711
0003f0 02 23 f6 3b 53 8c 35 3e ed 6f db 3c ec 24 66 3d
       0.0075114975 0.1772931 0.026786769 0.056187555

module.cls.bias f4 [2]
000000 99 15 a1 3e aa 8f 98 be
       0.3146179 -0.29797107
